3d/trained_model_seed1_GAT_polar_knn3_unit_sphere_200time_window_avg_dynamic.pth (torch, 708664 bytes, 37 tensors)

gnn.convs.0.att_src f4 [1, 4, 32]
000000 3e 6b 35 3d 4a 78 a3 be d3 60 51 bc f7 46 1b be
       0.044291727 -0.3192771 -0.012779432 -0.1516379
000010 54 df 84 3e a0 79 f1 3d df 8b 33 be f6 96 ed bc
       0.25951636 0.11790776 -0.17533825 -0.029002648
000020 65 2f 88 be f5 d2 17 3e 50 5e 6e be 0a 43 28 be
       -0.2659866 0.14826567 -0.23278165 -0.16431823
000030 92 ab 27 bf 67 22 88 3c 87 cf a6 3e ed 74 26 be
       -0.6549617 0.016617967 0.32580206 -0.16255541
000040 80 13 4c bf aa b3 d8 be 0f 8c af be 40 a7 55 3d
       -0.79717255 -0.42324573 -0.34286544 0.052161455
000050 85 ec 99 3e 16 9e 48 be bd d9 9d 3e 88 d1 12 3f
       0.30063263 -0.19591555 0.30830184 0.5735097
000060 ac 12 7a be 80 8e 0e 3e 9c 7d f6 3e 7d 5a 16 3f
       -0.24421185 0.13921547 0.48142707 0.58731824
000070 d0 ab 2e 3e fd f6 47 3e aa 64 38 bc 52 15 c2 3e
       0.17057729 0.19527812 -0.011254469 0.3790689
000080 fa 28 a1 3e 7b 99 93 3e ac d7 3f 3f 41 ff af 3e
       0.31476575 0.28828034 0.74938464 0.3437443
000090 2c 89 f1 3e 87 b5 08 be 49 e6 db 3e 3d 7e 43 be
       0.47174966 -0.13350497 0.4294913 -0.19091125
0000a0 de 8e c8 bd 66 cf 26 3f 51 48 c9 be 60 bb f1 3e
       -0.09792875 0.65160215 -0.39312986 0.47213268
0000b0 1c 07 7a 3e 13 12 57 3e ab 3c f1 3e 2e 46 24 3f
       0.24416775 0.21002989 0.47116598 0.64169586
0000c0 46 8d bb be 59 f2 84 3e ab 6f 01 3f 9e 61 10 be
       -0.3663122 0.25966147 0.50561017 -0.14099738
0000d0 7f 40 b5 be de 1f 80 3e 71 32 41 be 39 af a0 3d
       -0.3540077 0.25024313 -0.18866898 0.07845921
0000e0 1a 2e 04 3f f2 77 d6 3e d2 85 f8 bd 71 1c 45 3e
       0.51632845 0.41888386 -0.12134899 0.19249131
0000f0 b5 38 72 be d9 40 e4 be 6b ed e3 bd 12 7f af bc
       -0.23654445 -0.44580725 -0.11129268 -0.021422897
000100 9f bd 09 3f bd 9a db 3e 4c 96 bf 3e 5a b7 f0 be
       0.53804964 0.42891493 0.37419355 -0.47014886
000110 f0 c1 08 be 94 df bf be 10 46 c2 be c0 83 8a 3e
       -0.13355231 -0.37475264 -0.37944078 0.27053642
000120 50 5a 42 3e 62 cf 9c 3e f4 96 9b 3e d1 1c 59 be
       0.18979764 0.3062697 0.30388606 -0.21202399
000130 cc 3c 2a bf 0e 71 0f bc d2 2f 4d 3e 4d 3a 70 3d
       -0.6649902 -0.008754982 0.20037773 0.05864935
000140 ef b0 f2 3e aa 78 74 3d 71 32 23 3e 3f 63 0e 3f
       0.47400615 0.059685387 0.1593721 0.5562019
000150 53 2f 96 3c 0e bb ba be 52 22 0b bd 68 68 0e 3f
       0.018333113 -0.36470836 -0.033968277 0.5562806
000160 25 94 b2 be 9c a7 4f be 65 f8 91 be 74 53 a3 3e
       -0.3487865 -0.20278782 -0.28509822 0.31899607
000170 6a fd 3b bf 2e 14 99 be 67 83 22 3f 9f cb 14 3f
       -0.73433554 -0.29898208 0.63481754 0.581232
000180 4c 5b b6 3e c5 52 2d bf 24 d6 26 bf ae f4 e9 3e
       0.3561653 -0.6770442 -0.651705 0.45694488
000190 6b c8 ba 3e 05 ea e5 be 6b 29 2a be 4f e0 de be
       0.36481032 -0.44905105 -0.16617362 -0.4353051
0001a0 7e 87 46 3e c2 6b e3 bc f3 94 84 bb bd 96 b8 3d
       0.19387624 -0.027761344 -0.0040460764 0.09013126
0001b0 1e fd d1 3e 55 7e ef be 38 4c 03 bf c9 77 fd 3d
       0.41013426 -0.4677607 -0.51288176 0.12376363
0001c0 9e a2 67 be 9f a4 37 3f 57 5c 2c 3f e5 1e 8d be
       -0.22620627 0.71735567 0.673284 -0.27562633
0001d0 be 8c 19 3f 77 81 49 be c7 62 10 bf 65 8e cc 3c
       0.5998038 -0.19678293 -0.5640072 0.024970243
0001e0 df f8 03 bf ee c6 e3 be af 24 c4 3e 8b 9e 20 bf
       -0.5155162 -0.4448771 0.38309237 -0.6274192
0001f0 31 a7 16 3f 2d c2 a4 be 33 ea 1b 3b 7d 57 86 be
       0.58848864 -0.32179394 0.0023790717 -0.26238623

gnn.convs.0.att_dst f4 [1, 4, 32]
000000 48 2a c8 3d 9f 17 8e be 23 42 2a 3e 6f b8 ec 3c
       0.097736895 -0.27752396 0.16626792 0.028896539
000010 19 0a 38 3e 29 de cd 3e f3 aa 2b be 0b d1 92 3e
       0.17972602 0.40208557 -0.1676443 0.28675112
000020 68 00 4b 3e fd d9 d2 3e cb 0c 3d 3f 0e 02 bf 3d
       0.19824374 0.41181937 0.73847646 0.09326564
000030 76 da f0 be a5 43 df 3e 0a 2d 95 be b6 8b 27 be
       -0.47041672 0.43606296 -0.29135925 -0.16361889
000040 5f 9f d2 be 70 f8 aa be 90 00 5c be b5 26 2a be
       -0.41137215 -0.33392668 -0.2148459 -0.16616328
000050 da ff f9 3d ab 81 64 3e da d3 97 3e 56 51 03 be
       0.12207003 0.2231509 0.29653817 -0.12823996
000060 81 f9 c7 3e e7 6a 8b be d8 45 97 bd fb 73 43 3e
       0.39057544 -0.27229998 -0.073863685 0.19087212
000070 fb c5 99 be b9 32 f9 3d ef 76 cc 3e 4a 40 be 3e
       -0.3003386 0.12167878 0.3993449 0.37158424
000080 52 ad e8 ba 25 b4 9f 3c 7b 21 37 3c 2d df 94 3e
       -0.0017751849 0.01949508 0.011177416 0.2907652
000090 19 32 70 be 91 c2 ae 3c aa 7b ea 3e f9 1f 4e bc
       -0.2345661 0.02133301 0.45797473 -0.012580865
0000a0 39 1d ae be 41 ba bc be fc 1c 27 be 8d 28 a2 3e
       -0.3400667 -0.3686085 -0.1631965 0.31671563
0000b0 44 13 2d be 60 5e a8 bd 83 7b dd bc c6 bb bf 3e
       -0.1690188 -0.082211256 -0.027036434 0.37447947
0000c0 53 93 84 be c8 55 ed 3e f7 9b 54 3d 7d 2d 62 be
       -0.2589365 0.46354508 0.051906552 -0.22087665
0000d0 75 69 47 be 82 7a ea 3d a6 64 69 be f8 6e cd 3e
       -0.19473822 0.11449148 -0.227923 0.40123725
0000e0 40 9b 97 3e 51 c8 b0 bc c0 1c 91 3e b6 9e fc be
       0.29610634 -0.021579893 0.28342247 -0.49339837
0000f0 9c 81 0b be 1d 28 58 3e a9 9a 70 ba 5c 81 b0 be
       -0.13623661 0.21109052 -0.00091783196 -0.34473693
000100 44 04 5a bd 12 e3 f9 bd cc 61 97 be 69 93 91 be
       -0.053226724 -0.12201513 -0.295668 -0.28432778
000110 c3 4c 28 3e d0 64 cd 3d 6f 58 22 3e 8e 6b c6 be
       0.16435532 0.10028994 0.15854047 -0.38753933
000120 95 68 8f 3e 93 e4 fd 3d 7b 58 9c be 0f 72 78 3d
       0.28009477 0.12397113 -0.30536255 0.06065565
000130 a0 4f f2 be 7b 00 01 bf 18 7b 23 bd 52 5d 7b be
       -0.47326374 -0.5039136 -0.039912313 -0.24547318
000140 12 65 b2 3c 3a c3 02 be 80 32 d5 3e cf c2 b2 3e
       0.02177671 -0.12769786 0.4164009 0.34914252
000150 5f 9b 62 3d 26 52 64 3d 66 82 b5 be 51 28 8d be
       0.055323955 0.055742405 -0.3545105 -0.2756982
000160 51 37 23 bd ed 0f dc bc 8d d6 50 3c 81 0d 5c be
       -0.039847676 -0.026863063 0.012746465 -0.21489526
000170 64 9d a3 be 43 1d 4e 3e c8 1d 7e 3e 06 a8 05 3f
       -0.31956017 0.2012835 0.24816048 0.5220951
000180 6f 2d 43 3e 64 8c ce 3e 13 63 a3 3e b6 4d 9c bd
       0.190603 0.40341485 0.31911525 -0.0763201
000190 f9 c3 80 3e 6d f2 da 3c 86 d1 78 be 6d 25 61 39
       0.25149515 0.026726926 -0.24298677 0.00021471614
0001a0 46 04 b3 3c ba 09 06 3f e8 d5 fc bd 48 53 0c 3e
       0.021852624 0.5235859 -0.12345487 0.13703644
0001b0 e4 ad 37 3e f8 1b b4 3e 8a 5c 52 be c2 22 86 bb
       0.17937428 0.35177588 -0.20543113 -0.004093499
0001c0 8b 2a 5d 3e 12 bf 8c bd 11 aa 85 3e d6 f7 b3 3d
       0.2159826 -0.06872381 0.26106313 0.08787505
0001d0 20 2b 6f be 30 87 b1 be e9 cc d4 be cb 47 e3 3d
       -0.23356295 -0.34673452 -0.41562584 0.11097678
0001e0 a2 ab 88 be f8 e5 8e 3d b6 26 91 be ad 00 40 3d
       -0.26693445 0.06977457 -0.28349847 0.046875644
0001f0 71 cb 84 3e 65 2b 7a be 9d dc d3 3e d4 12 bb 3e
       0.25936463 -0.24430616 0.41379252 0.36537802

gnn.convs.0.bias f4 [128]
000000 58 6a 36 bd 73 c0 0f bd d2 e6 43 bc 7a ad 03 bc
       -0.04453501 -0.035095643 -0.011956887 -0.0080369655
000010 1b 05 77 bd f4 aa 63 bd e5 84 02 3c 8a c1 ce 3c
       -0.060307603 -0.055582955 0.007966255 0.025238771
000020 a7 36 2c bd 35 53 87 bd 6f 0e 9e 3a 39 97 30 3d
       -0.042044308 -0.06607667 0.0012058745 0.043112967
000030 0d 62 12 bc 30 41 b3 bc 35 32 98 3c 8f 77 1d 3d
       -0.00893451 -0.02188167 0.018578628 0.038444098
000040 86 16 4e 3c 02 54 4b 3d 9e f2 87 bd a0 e6 4a bc
       0.012578612 0.049640663 -0.066380724 -0.012384087
000050 1b 25 7d 3c 00 df 37 bb 1b 4c 95 bd 50 93 ec 3c
       0.015450741 -0.0028056502 -0.072899066 0.028878838
000060 cf bf d0 3c 8d 79 d3 bb 85 f6 e3 3c 1a f5 1c bc
       0.025482086 -0.006453699 0.02782751 -0.009579921
000070 c3 9c 66 3d 97 04 b9 bb 32 4b 24 bc b7 0f 32 3c
       0.056301843 -0.005646299 -0.010027694 0.0108680045
000080 c1 7b cd 3b c1 b4 7c bc 37 66 81 3d 64 72 9f bd
       0.006270856 -0.015423954 0.06318324 -0.0778549
000090 92 7a 00 bd 81 33 c1 3c 65 5d b3 bc 77 26 ec bc
       -0.031366892 0.02358413 -0.02189512 -0.028826935
0000a0 2d de 68 3c e4 b9 26 3c 79 70 30 3d 4b be 0a 3d
       0.014213127 0.010176156 0.043076012 0.033872884
0000b0 38 9e 83 bd d8 0b ae bc 2e 0f db 3c 2c e9 37 bc
       -0.06426662 -0.021245882 0.026740637 -0.011225026
0000c0 c6 27 d8 3c d4 db d9 3c 51 4c bf bc 96 74 73 bd
       0.026386153 0.02659408 -0.02335182 -0.059437357
0000d0 27 20 39 bd 0f 86 3a 3d 49 58 45 bd ec 60 db bc
       -0.04519668 0.045538004 -0.0481799 -0.026779614
0000e0 a5 4b c2 3c 50 03 01 bd df 48 73 bc 6c f1 12 3d
       0.02371771 -0.0314973 -0.014848917 0.03587477
0000f0 47 6e 35 bd a5 1e 4d 3d e6 cc 4b 3d 13 04 fa 3c
       -0.04429462 0.050078053 0.049755953 0.03051952
000100 17 af b5 3c ed 0f 0d 3c ad 9d 14 bc 0a 4f 3b bd
       0.022178216 0.008609754 -0.009070796 -0.045729674
000110 c8 c9 cf 3b 7a 0a df 3c 36 08 29 3d cf 6e e2 3c
       0.006341193 0.027226675 0.041267596 0.027640728
000120 43 4b f0 bc 80 54 23 3d 7a 75 ba bd e9 8f cb bb
       -0.029332763 0.039875507 -0.09104438 -0.006212224
000130 5b e6 30 3d db 2c 22 bd f8 ab b9 3c c6 57 17 bc
       0.043188434 -0.03959356 0.022665009 -0.009237235
000140 65 a9 1e bd 0b 6d 68 bd d4 28 3b bd 7d 69 10 bd
       -0.038735766 -0.056744616 -0.045693234 -0.03525685
000150 89 91 18 3c 7d f0 13 bc 75 45 54 bd 92 80 75 3d
       0.009312042 -0.009029505 -0.051824052 0.059937067
000160 71 33 6f bd 79 36 0f 3d 16 25 06 3c ae 5f 1a 3d
       -0.058398668 0.03496406 0.008187553 0.037688904
000170 71 ad 1f 3d a1 c7 51 3c 9a cf 37 bd 8a 40 55 3c
       0.038983766 0.012803943 -0.04487572 0.013015876
000180 48 79 33 3d 8b 87 26 bd a7 47 6e bc 07 e1 3b 3d
       0.043816835 -0.040656608 -0.01454345 0.0458689
000190 5a e5 6f bd fb 19 21 bd 49 66 d6 3c 2e b3 49 bc
       -0.058568336 -0.039331418 0.02617182 -0.012310786
0001a0 70 bc 99 3b 8c ec 24 bd 0b 36 cc bc ec e9 d2 3b
       0.004691653 -0.04026465 -0.024928113 0.006436577
0001b0 d8 04 3f 3c 47 20 38 bd 23 cb 2c bc 17 cc 3b 3d
       0.01165887 -0.044952657 -0.010546478 0.045848932
0001c0 b9 3b 93 3d c7 bd e2 bc 50 77 6e bd a3 ae f4 3c
       0.071891256 -0.027678384 -0.058219254 0.02986843
0001d0 f8 98 0b bd fd a3 01 3d be db 41 bc 3d 4d 8a 3a
       -0.03408143 0.031650532 -0.011832176 0.0010551583
0001e0 70 95 e9 3c 78 23 52 bd 64 8d 19 3d 4e f8 bd 3b
       0.02851364 -0.051303357 0.037488356 0.0057974225
0001f0 f4 63 6f 3d 15 2f 8f 3d 48 3e 29 3d 58 30 63 bd
       0.058444932 0.06991402 0.04131916 -0.055466026

gnn.convs.0.lin.weight f4 [128, 23]
000000 48 23 67 bd 53 47 72 3d 92 3a 16 be e6 17 41 3d
       -0.05643013 0.05915005 -0.1467078 0.047141932
000010 11 0e fb 3d 74 d7 5a 3d a1 9b bc 3d 2d d0 a5 bd
       0.12258542 0.05342813 0.09209371 -0.08096347
000020 64 d6 0b 3d 22 fe 0f be 7b 30 c9 3d e6 48 51 bd
       0.034140006 -0.14061788 0.098237 -0.051094912
000030 78 c8 5d 3d 80 42 9f be 12 d5 97 3e 85 a5 89 be
       0.05414626 -0.31105423 0.29654747 -0.26884094
000040 e5 69 0a 3e 34 0c 07 3e 16 bf ec bc a1 3d fa be
       0.13516958 0.13188249 -0.02889971 -0.48875144
000050 16 45 9f bd ad bc 5f be 11 05 4b 3d 3d 43 ea 3c
       -0.07776849 -0.21849318 0.04956538 0.028596515
000060 79 8e 0a be f0 b8 4a 3e 79 05 09 3e 30 ab e3 3d
       -0.13530912 0.1979711 0.13380994 0.11116636
000070 ac 6a fd bd 9e d3 38 bd e4 f0 3d be c3 d4 3f 3e
       -0.12373862 -0.04512369 -0.18548924 0.18733506
000080 5d 29 2a 3e 21 9b 77 3e df 89 47 3e 1f 7f 6b be
       0.16617341 0.2418027 0.19486187 -0.22997712
000090 c6 e2 97 3e 2d 78 f8 bc 91 19 a7 3e 57 6e 30 be
       0.29665202 -0.030330742 0.32636693 -0.17229591
0000a0 16 15 dd bd c3 43 72 3d c3 9e a3 3e 1a 5a b5 bd
       -0.107950374 0.059146654 0.31957063 -0.08855076
0000b0 1c 55 28 3e b0 13 39 be f6 fd ed 3d 58 e0 df b9
       0.16438717 -0.18073916 0.11620705 -0.00042701024
0000c0 ee c2 44 be 89 c9 72 3e 57 2f 68 bc 4f 0f 0b be
       -0.19214985 0.23709692 -0.014171443 -0.13580059
0000d0 40 de fa bd f1 d2 4f be 6d a2 28 be ff b3 9f 3c
       -0.12249422 -0.20295312 -0.1646821 0.019495009
0000e0 9f b6 04 be 07 39 fa bc a6 99 7c bc 62 a2 02 3e
       -0.1296029 -0.03054477 -0.015417492 0.12757257
0000f0 91 f8 fa be a1 65 03 be dc f5 e3 3d ce 16 26 3c
       -0.49017766 -0.12831737 0.11130878 0.010137273
000100 71 61 f7 3d 07 3e 29 bf aa 71 c5 3d 75 5e 73 3e
       0.12079132 -0.6611027 0.0964082 0.23766501
000110 84 6c 49 3e 83 70 2f 3d 3a fd ae 3d 48 23 7b bd
       0.19670302 0.04283191 0.08544393 -0.061312944
000120 7a cb f7 bc 20 65 5f 3e ea 1a 2e be 11 f1 6c be
       -0.030248392 0.2181592 -0.17002454 -0.23138835
000130 6e aa 97 bd 0f 26 1c bd 1b 91 0f 3e 06 98 99 3d
       -0.07405554 -0.038122233 0.14020197 0.07499699
000140 47 e4 3b be fc dd 15 3e e8 a0 b6 bd 78 b1 a0 be
       -0.183488 0.14635462 -0.08917409 -0.31385398
000150 5b 70 65 3e 27 f3 6c be b2 65 a4 3d 45 47 55 3d
       0.22406141 -0.2313963 0.08027209 0.05206992
000160 f4 f0 0f 3d 63 cc 5c bd 8e 70 6b be 0f ce be 3d
       0.0351419 -0.053905856 -0.22992155 0.09316646
000170 18 ea f1 3c 7d a4 e8 3d 09 54 80 3c 36 31 0e 3e
       0.02953057 0.11359499 0.015665071 0.1388596
000180 6b 5d 23 be 4c 3f 07 bd 90 5a 32 bd f0 09 f4 3d
       -0.15953605 -0.03301935 -0.0435434 0.11915958
000190 db db d6 3d 57 17 c1 3d 36 7a ac bd f6 26 29 bd
       0.10491153 0.0942828 -0.084217474 -0.04129692
0001a0 8f a2 38 3d 91 d0 a6 bb 5b 27 2f 3d 31 49 35 be
       0.045076903 -0.005090781 0.04276214 -0.17703702
0001b0 9a 9b d9 3d f4 99 81 3d 34 6e 2f be 4c 7c 49 bd
       0.10625382 0.06328192 -0.17131883 -0.049190804
0001c0 1e 3a 25 bd a4 9a 1d 3e e3 8e 62 3d 91 f8 7b be
       -0.040338628 0.15391022 0.05531205 -0.2460654
0001d0 03 5a 38 be fa 64 d2 3d 22 0b f5 bd 55 06 45 3d
       -0.18003087 0.10273166 -0.11965014 0.04810174
0001e0 57 bf 24 3e 8a ac 22 3b 4a 11 2a 3e b3 e3 62 bc
       0.16088615 0.002482208 0.16608158 -0.013848233
0001f0 f6 eb 0d 3e 23 b8 14 3e 27 cb 0c 3c c1 8a cb bd
       0.13859543 0.14523368 0.008593357 -0.099385746
000200 98 93 ee 3c de ce 8c be ee e8 bc 3e d8 63 14 be
       0.029123113 -0.27501577 0.3689646 -0.14491212
000210 70 8f f4 3d 45 88 b0 3d a1 ca 0d 3d 2b fa 9c 3e
       0.11941421 0.08619741 0.03461707 0.30659613
000220 0b 80 01 be 34 ce fa 3d bb 1d 1d 3d 4a b4 d9 bd
       -0.12646501 0.122463614 0.03835843 -0.106300905
000230 40 8e c9 3d 24 1f af 3d 71 f1 24 be 78 e9 dd 3b
       0.09841585 0.085508615 -0.16107728 0.0067722164
000240 33 67 8e 3d 46 7a 71 3e b6 ce 71 bd 40 65 a6 3d
       0.069532774 0.235818 -0.059035026 0.08124781
000250 81 82 51 bd 03 c6 22 3d 54 1f f7 bc 42 37 20 3e
       -0.05114985 0.03973962 -0.030166306 0.15646079
000260 ca 98 42 3d 1d 7d 3e be af fa af 3d 03 21 d3 3d
       0.047508992 -0.18602414 0.08592736 0.10309031
000270 01 72 86 be ab a4 35 3f 1b 79 f0 3e bf a5 f5 be
       -0.26258853 0.7095439 0.46967396 -0.47978017
000280 13 02 aa 3d db 57 07 3c 42 31 d5 bd a0 6f 3b 3e
       0.08301177 0.0082606925 -0.10409786 0.183043
000290 b2 ee 80 3d 0f ad 35 3e 1a 5a 20 be 00 72 d9 3d
       0.062955275 0.17741798 -0.15659371 0.10617447
0002a0 d3 0d fe bd 0a 8c d5 bd 23 b4 57 be bb 30 3d 3e
       -0.124049805 -0.10427101 -0.2106481 0.1847562
0002b0 26 4c 9b bd 88 34 4b 3e da 84 58 bd e5 87 24 3e
       -0.075828835 0.19844258 -0.052861072 0.16067465
0002c0 f2 ba a5 be 0f f0 1e be a4 cd 4a 3e 75 56 d4 bd
       -0.3236919 -0.15521263 0.19805008 -0.10368053
0002d0 de 47 e1 bd b2 0c 19 be 04 4a f5 3d eb b9 31 be
       -0.11000036 -0.14946249 0.11977008 -0.17356078
0002e0 07 e7 4a 3e 17 95 ee bc b9 2e 88 bd 03 9c 8f bd
       0.19814692 -0.029123826 -0.06649537 -0.07012179
0002f0 0e b9 0b bd 68 58 87 3d 99 0d 41 3e 4f f8 cc bd
       -0.03411203 0.06608659 0.18852843 -0.100082986
000300 67 2c 2f 3e 37 4f 00 bc 98 31 09 be 8d b7 a0 bd
       0.17106782 -0.007831386 -0.13397825 -0.078475095
000310 28 1a 58 3d 17 87 15 bd a8 15 8f bd 15 b9 5b 3e
       0.05275932 -0.036505785 -0.069865525 0.21457322
000320 fc 6c 5b be 84 77 68 bd 04 52 3a 3c 77 f7 09 3f
       -0.21428293 -0.056754604 0.011372093 0.53893226
000330 b8 0d c4 3e b6 43 15 bf e4 36 e8 3d 3f 05 b4 bd
       0.38291717 -0.58306444 0.113385946 -0.08790063
000340 f3 6e b6 bd 5c 09 dc 3d 1e d6 8c be 80 d3 4e ba
       -0.08907881 0.10743973 -0.27507108 -0.00078897923
000350 87 ce f6 bc 3e 40 25 3e d5 84 9e 3d 5b 14 96 3d
       -0.030127777 0.16137788 0.077401794 0.07328101
000360 7b fd 60 3d 44 47 fb 3d 74 83 63 3d 1e a2 03 3e
       0.054929238 0.12269452 0.055545285 0.12854812
000370 9c c8 70 3e 8e 47 59 3d 3f a3 e5 3d a2 6e f2 3c
       0.23514026 0.053046755 0.11212777 0.02959377
000380 71 14 71 3d 7e d2 28 be 28 f1 95 bb 29 c0 93 3e
       0.058857385 -0.16486546 -0.004575867 0.28857544
000390 35 dd 95 be b6 59 f6 bd b5 7a 8d bd cd fb a2 3d
       -0.2927033 -0.1202883 -0.0690817 0.079581834
0003a0 d6 03 5f bd 7a ee 5a 3d 3e c6 b2 bb 95 b8 a0 3d
       -0.054447018 0.053450085 -0.005455761 0.07847706
0003b0 81 71 e0 bc 2f da 5a 3e 81 b0 82 be 5e e2 39 3e
       -0.027397873 0.21372293 -0.25525287 0.18152758
0003c0 cc 65 35 be 46 70 0d bd aa c1 11 3e 80 ad 0b be
       -0.17714614 -0.0345309 0.14234033 -0.13640404
0003d0 bb 75 94 be 7f a6 f3 be f9 8c c4 3d 42 8f 46 3e
       -0.2899607 -0.47587964 0.09597201 0.19390586
0003e0 67 92 0a be 40 ff 5f be 0b c5 48 be 81 cf 25 be
       -0.1353241 -0.21874714 -0.19606416 -0.16192438
0003f0 ad 4e 1c 3e 3b 22 fb 3d 1d 22 fd bd 7b 12 6b 3e
       0.15264387 0.12262388 -0.12360022 0.22956268

gnn.convs.1.att_src f4 [1, 4, 32]
000000 58 a7 9c bd f9 9c 75 be 8f ff f1 be 67 13 54 3e
       -0.07649106 -0.23985662 -0.47265288 0.20710526
000010 27 eb 61 3e cd 64 a7 be d2 2c 4a 3e 1d e6 65 bd
       0.2206236 -0.32694092 0.1974366 -0.056127656
000020 7b b0 4d 3e 4f 8f 11 3e 62 79 a2 bd cf e0 33 be
       0.20086853 0.14214824 -0.07933308 -0.17566226
000030 b3 cb 91 be 09 05 9d bd 02 d4 b9 be 91 be 7c bc
       -0.28475723 -0.07666976 -0.36294562 -0.015426294
000040 1c 5b db 3d b5 91 8e bd d0 f8 ea 3c 4d 2e 68 3e
       0.10710737 -0.06961385 0.028683096 0.22673912
000050 0a fb e0 be 84 d2 f3 3d ed 65 25 bf d2 f2 29 be
       -0.43941528 0.11905387 -0.6460865 -0.16596535
000060 d6 ad 5a be 21 b1 ce 3e ac 86 98 3c 1d 2f d6 be
       -0.21355376 0.40369514 0.018618904 -0.4183282
000070 7c f0 b5 bd ed a1 96 bd 2d 62 82 3e 97 1e a5 be
       -0.088837594 -0.07355104 0.25465527 -0.322499
000080 78 87 6a 3e 64 c0 a6 be e0 3a 69 be 11 69 b7 be
       0.2290324 -0.32568657 -0.22776365 -0.35822347
000090 00 8c 6f 3e 7d 86 ae 3e e5 f4 41 3e df 03 35 bd
       0.2339325 0.3408698 0.18941076 -0.044193145
0000a0 05 e8 d4 be 0c e5 8a 3e a3 67 d2 3a b3 01 d8 3e
       -0.41583267 0.27127874 0.0016052615 0.42188796
0000b0 ba 81 11 bf e1 25 11 3e 32 7d df 3e 3e e4 92 3e
       -0.5683857 0.14174606 0.43650204 0.2868976
0000c0 ec ac df bd 59 19 cd be b3 c9 89 bd 95 6b 58 bd
       -0.10921654 -0.400584 -0.06727924 -0.052836973
0000d0 08 0b f1 3d eb 7e b9 be 51 81 d5 be 0c 38 66 bc
       0.11769682 -0.36229643 -0.41700223 -0.014051449
0000e0 df 9b 2a 3d e4 ba ad be 4a a1 90 3d 30 f6 5c be
       0.041652557 -0.3393165 0.070620134 -0.21578288
0000f0 e8 4e 5f 3e 24 88 48 be 46 bf 54 be 4e f6 dd 3e
       0.21807444 -0.19583184 -0.2077609 0.43351978
000100 fd 92 ea be 40 e4 81 bd 7a e7 71 3e d1 be a2 3e
       -0.45815268 -0.06342363 0.23623458 0.31786206
000110 f6 12 83 3d 0f c3 57 3e 1b fd 44 3e 44 28 b7 3e
       0.06400101 0.21070503 0.19237177 0.35772908
000120 fb aa 0b bf 47 52 1c bf b4 98 30 bd 53 2d 24 3f
       -0.5455777 -0.61063045 -0.04311438 0.6413166
000130 e4 56 c1 be 2d 09 92 3e ce bb a3 be a6 0f 49 bf
       -0.37761605 0.28522626 -0.3197922 -0.785395
000140 7f 2c c8 3e 4e 67 46 bf 4a 71 52 3e a6 e1 e6 3e
       0.39096448 -0.7750138 0.20551029 0.4509403
000150 73 15 9c bd 20 1d 76 3e 19 e5 82 be 86 65 27 3f
       -0.076212786 0.24034548 -0.25565413 0.6538929
000160 a3 b8 9d 3e 26 5a ac bd 65 19 fe 3e a1 fc ec 3c
       0.3080493 -0.08415632 0.4962875 0.028929057
000170 49 be 8f 3e 46 c4 64 3e 85 ae 6e 3d 41 72 07 bf
       0.28074864 0.22340497 0.058271904 -0.5290871
000180 5a a7 20 3e 18 89 ca 3e e8 24 05 bf 51 92 f7 bc
       0.1568884 0.3955772 -0.5200944 -0.030221136
000190 f3 73 0c be 98 d3 b5 bd 74 6e 27 be c4 74 b3 3e
       -0.13716106 -0.08878249 -0.16350728 0.35050023
0001a0 15 28 c6 be db ce d8 bd e3 0d a9 bd 43 bb d3 3e
       -0.38702455 -0.105863295 -0.08254602 0.41353807
0001b0 ba 61 08 bf a0 27 96 be e6 d2 7a bc dd 21 e5 be
       -0.5327412 -0.29327106 -0.015309071 -0.44752398
0001c0 a8 4a c9 3e 51 d1 4d bc f2 0c 16 3e 0f a1 51 3e
       0.3931477 -0.012562112 0.14653376 0.20471595
0001d0 dc 07 03 3f 65 4c fd 3d d3 fc 7a 3e b3 c9 f9 3e
       0.5118387 0.12368087 0.24510507 0.48786697
0001e0 0c 23 59 3e bc 72 24 3e 41 69 8d bd bc c2 9d bd
       0.21204776 0.16059393 -0.06904841 -0.07703158
0001f0 f2 b9 9f 3e 7a 1e 19 3e 06 21 b2 3e 95 2a 42 3e
       0.31196553 0.14953032 0.3479082 0.18961556

gnn.convs.1.att_dst f4 [1, 4, 32]
000000 9b ed 84 bd de a5 5e be 57 94 8d be c3 33 a9 3e
       -0.06490632 -0.21742961 -0.27652237 0.33047304
000010 32 30 73 bc bb b0 5d be 8f a4 88 3e ad d7 9e be
       -0.014843034 -0.21649449 0.26688048 -0.31023923
000020 07 6b cc be bb 16 a6 be 0c f8 74 3e 04 36 34 3e
       -0.39925405 -0.32439217 0.23922747 0.1759873
000030 29 80 2b be 16 37 ba bb f1 ec ef 3d 6c 6a 8c 3e
       -0.16748108 -0.0056828363 0.11715115 0.27424943
000040 42 53 19 3e 16 63 b0 be ae a9 65 3e 5b 25 d9 3d
       0.14973167 -0.34450597 0.22428009 0.10602828
000050 4f 3b a5 be 14 18 b7 be 05 f5 74 3e c6 de 08 be
       -0.3227181 -0.35760558 0.23921593 -0.13366231
000060 0e 9d d6 3e 67 32 8f be 79 92 4b bd 1c 4f 63 3e
       0.41916698 -0.2796814 -0.049700234 0.22198147
000070 9a 0e 64 be 38 5f bf bd e4 b7 55 bd f9 40 38 3e
       -0.22271195 -0.093443334 -0.052177325 0.17993535
000080 62 da 07 bf 6c 2b 99 3e 0e 6b c9 be 03 b9 63 bc
       -0.530676 0.2991594 -0.3933949 -0.013899091
000090 21 81 4b be df 87 59 3c 0c 91 79 3d 0f fb aa 3e
       -0.19873478 0.013277023 0.060929343 0.33394668
0000a0 26 a4 45 be 37 95 ab 3e f5 1c 22 be 39 b4 d9 3d
       -0.19300899 0.3351228 -0.15831359 0.10630078
0000b0 1d 67 ed bd f5 9b 7b 3b 1e 82 f7 bd 87 ff 7f 3d
       -0.11591933 0.0038392518 -0.12085365 0.06249955
0000c0 1f 07 a9 3c e7 40 3d bf c3 f7 a1 3e 84 3e 82 3e
       0.020633278 -0.7392716 0.3163434 0.2543832
0000d0 1d ee ba 3e 5c eb 61 be cb 8d c7 3e e8 96 b3 3e
       0.3650979 -0.22062439 0.38975367 0.3507607
0000e0 6d d9 2d 3e 39 16 49 be 80 0d 3b 3d ed d0 88 be
       0.16977473 -0.19637384 0.04566717 -0.26721898
0000f0 00 df d9 3b a1 a9 10 3e 74 b8 a5 3b 92 56 2e bd
       0.006648898 0.14127208 0.005057389 -0.04256303
000100 8b 89 f5 be 3a ca 89 3e 0d 0e 62 3e f0 85 1c be
       -0.479565 0.269121 0.22075672 -0.15285468
000110 69 ce 06 3e a4 02 1f be bc 9a d7 3d 6e 1f d7 3e
       0.13164677 -0.15528351 0.1052756 0.42016166
000120 21 52 86 be 63 e3 2c bd f1 bc 8f bd eb 23 0e 3e
       -0.26234534 -0.04220904 -0.070184596 0.13880889
000130 37 73 03 3e 66 c7 0d be 43 27 18 be 00 10 05 be
       0.1283692 -0.13845596 -0.14858727 -0.12994385
000140 89 e2 c2 3e e1 c1 1a 3d 35 60 71 be c8 50 5d 3e
       0.38063458 0.037782554 -0.23571856 0.21612847
000150 b6 9d a9 be 0a 89 c8 3e cb 1e 96 bc 96 44 28 be
       -0.33128136 0.39167053 -0.01832523 -0.16432413
000160 16 96 e8 be 96 7d 0a 3f 16 ec 6c 3e 27 55 9b 3e
       -0.45427006 0.5409788 0.23136935 0.30338404
000170 63 76 ff 3d 8b e7 20 3e 41 32 40 3e a5 fd 85 bc
       0.12473752 0.15713327 0.1876917 -0.016356299
000180 72 0e ae 3e 48 b5 13 bd 76 61 68 be 6f 9a a6 be
       0.33995396 -0.036061555 -0.22693428 -0.32539698
000190 d0 03 dd be 92 14 e2 3e fa 55 a7 3e 3a 21 3f 3e
       -0.4316697 0.4415632 0.32682782 0.18665019
0001a0 19 8c e3 bd 62 52 43 bd 83 44 4c be dc f0 a4 3e
       -0.11110706 -0.04768599 -0.1994801 0.3221501
0001b0 30 0c ce 3d 9d bc 98 3c e8 e0 01 3d 80 6b 70 bd
       0.10060918 0.018644625 0.031708628 -0.05869627
0001c0 b2 2d 7b 3d d3 d8 9a 3e 1b 9b 8f 3e bb ce a1 be
       0.061322875 0.3024355 0.28048024 -0.31603035
0001d0 16 69 6e be 46 24 5a 3e e6 4c 3d be 85 ce 15 be
       -0.23282275 0.213029 -0.18486366 -0.14629562
0001e0 9e b5 3b 3e d8 63 0f 3e 1f a9 3d be 51 1e 9c 3e
       0.18331 0.14002931 -0.18521546 0.3049188
0001f0 21 ea 15 be 1f 3a 52 3d 3a 08 cb 3e d4 df 99 3e
       -0.14640094 0.05132496 0.39654714 0.3005358

gnn.convs.1.bias f4 [128]
000000 36 ec 36 bb 69 1b f9 3a 46 fb b3 3c 49 04 03 3c
       -0.0027911789 0.0019005361 0.021970402 0.007996627
000010 1b 9a ee bb 28 94 66 3c 4e 9e 8b bd 63 05 5d 3b
       -0.0072815544 0.014073409 -0.068173036 0.0033725135
000020 37 5d 52 bc 8d 24 ff bc 3c 92 89 3c 7a 19 cf 3c
       -0.012839607 -0.031145358 0.016793363 0.025280703
000030 85 36 e8 3b 7c 01 6a bc 26 5a 17 bd c8 ce 0a bd
       0.0070865774 -0.01428258 -0.036951207 -0.03388861
000040 52 d7 2c bd 6f 6f 83 3c e0 fd 72 bd 38 0b 9a bc
       -0.042197533 0.016044347 -0.059324145 -0.018804178
000050 3f 04 8c 3d fc 03 1a bd 7c 2d 2a bd b9 b8 a9 bb
       0.068367474 -0.037601456 -0.041547284 -0.0051794914
000060 75 02 47 3b e5 d3 13 3d ae 57 2b bc 57 e0 3c bd
       0.0030366455 0.03609075 -0.010457916 -0.046112385
000070 8e 95 6b bc 5a 38 59 3b b6 7a 31 bd fc 90 04 3c
       -0.014378918 0.003314516 -0.043329917 0.008091208
000080 41 cf 08 bb 83 94 77 bc 50 98 07 3c 43 7e e8 bc
       -0.0020875486 -0.015111092 0.00827606 -0.028380519
000090 d8 4f c5 bc ec 59 8b 3c 6d 3b 99 bc d7 a2 55 bd
       -0.024085924 0.017010652 -0.018705094 -0.05215725
0000a0 78 09 39 3c 5d 78 db bb 8d 68 1d 3c be 77 85 3c
       0.011293761 -0.006697698 0.009607446 0.01629245
0000b0 58 d7 ae bc 6a fe a8 bc 48 e0 bf ba 27 24 47 3b
       -0.021342918 -0.020629127 -0.0014638985 0.0030386539
0000c0 06 2a c7 bc 2a ad 43 bc f1 ab f2 3b 58 99 e1 bb
       -0.02431203 -0.011943141 0.007405751 -0.006884735
0000d0 57 63 43 bc 41 a8 f5 3b b8 5a 4e 3c ac 1f cd 3c
       -0.01192554 0.007496864 0.012594871 0.025039516
0000e0 33 29 da bc fc d2 69 bc d8 db a3 bc 32 8f 04 bd
       -0.026630973 -0.014271494 -0.02000229 -0.032363124
0000f0 39 ba a4 bc 60 fe 8e 3c 99 14 35 3c 21 ff 2f 3d
       -0.02010833 0.01745528 0.011052274 0.04296792
000100 2e 3b 17 bb e7 83 cc bb 4a 2d ad b8 9d b4 19 bc
       -0.0023076045 -0.00624131 -8.2577186e-05 -0.0093814405
000110 3f ce a4 bc f6 66 42 3a bb bb 2e 3c 19 97 b7 bc
       -0.020117877 0.0007415855 0.010664876 -0.022410916
000120 c6 31 23 bc ef 36 e4 3b 29 5b 68 3c 77 a3 af bb
       -0.009960597 0.0069645564 0.0141818905 -0.0053600627
000130 bf ac b5 3c ac 12 cb bc b3 88 51 bc 22 39 2b bc
       0.022177098 -0.024789177 -0.012788939 -0.010450633
000140 50 4a d0 bc 98 47 c2 bd ec eb a5 ba c5 f7 0b bd
       -0.02542606 -0.09486312 -0.0012658811 -0.03417184
000150 1f a4 4b 3c 4b 28 be 3c 5d 3f 30 3c 25 59 6a bd
       0.012429266 0.023212573 0.0107572945 -0.05721392
000160 3e 0d bd bc ca 81 76 bc f3 96 ca bb 2e d6 56 3b
       -0.023077603 -0.015045593 -0.0061825453 0.003278147
000170 b2 a5 12 bd d7 51 38 bc 74 e8 e5 bb 97 9d 20 3d
       -0.03580255 -0.011249981 -0.007016236 0.03921279
000180 f4 9d bf bc d4 97 a9 3c 4f 84 97 3c 09 09 c5 bb
       -0.023390748 0.02070228 0.018495707 -0.00601304
000190 b2 c8 89 3c af e7 9e bc 51 f3 d0 bc c0 51 de bc
       0.016819332 -0.019397585 -0.025506647 -0.02713859
0001a0 3a ee 63 bb 11 61 b1 bc a5 b1 e5 3c ee ac 4d 3c
       -0.0034779445 -0.02165273 0.02803881 0.012553437
0001b0 85 ee d5 bc cd ce 82 bd b9 a4 ec ba ce 92 45 bc
       -0.026114712 -0.063871 -0.0018054462 -0.012058927
0001c0 7f 17 69 bd 57 5a 08 3c af ec 79 3c 36 32 0d 3c
       -0.056907173 0.00832232 0.015254184 0.008617928
0001d0 dc 9d b5 bc bf 60 45 bd ff 16 04 bc 58 2e 52 bd
       -0.02217 -0.048187967 -0.008062123 -0.051313728
0001e0 78 06 33 3c a5 0f ae 3a 4e 06 67 bc 18 b5 f8 3b
       0.010926835 0.0013279809 -0.014100624 0.0075899474
0001f0 62 70 04 ba 2b b1 40 3c 41 f3 77 b9 18 fa 97 bc
       -0.0005052147 0.01176099 -0.00023646375 -0.018551871

gnn.convs.1.lin.weight f4 [128, 128]
000000 27 c0 e6 3d 48 4b 12 3e 16 e1 15 3e 74 11 b8 bd
       0.11267119 0.1428653 0.14636645 -0.08987704
000010 11 40 0b 3d 3d 6b a8 bd 4d 4d 8a bd 3f f4 bf bd
       0.033996645 -0.08223579 -0.06753025 -0.09372758
000020 60 2a 8b bd 68 c0 b4 3d 46 31 74 be a8 3c 6e bd
       -0.06795192 0.08825761 -0.23846921 -0.058163315
000030 1e 21 ef 3d e3 54 c2 3d 07 e8 2c be 73 4b b8 3c
       0.116762385 0.09488847 -0.16885386 0.022496914
000040 42 41 dd bb 14 16 9c 3d c3 96 a8 3a 49 aa fb bc
       -0.006752164 0.076213986 0.0012862313 -0.030720847
000050 eb 6a 11 3b 04 29 ae 3d 3c ff 47 3e 70 3b 38 3e
       0.0022188972 0.08503917 0.19530958 0.17991424
000060 57 41 d4 bc 62 86 bc 3b 98 78 27 be af bb 8d bc
       -0.025910063 0.0057533244 -0.16354597 -0.017301409
000070 84 d2 01 3e 8b ba 17 be ee cf 9d 3d c7 7c 1c 3d
       0.12677962 -0.14817254 0.07705675 0.038204934
000080 bc cb c7 3c b2 9d e3 3d c3 91 55 3e b4 fa d3 bd
       0.02438914 0.11114062 0.20856385 -0.10350552
000090 88 23 27 3e 5f dd 01 be d4 e4 97 bc f3 3b df bd
       0.16322148 -0.12682103 -0.018541731 -0.10900106
0000a0 99 a3 7e bd 63 9e 74 3e 9a ff 3b 3e 54 98 1b bc
       -0.062167738 0.23888545 0.18359223 -0.009496767
0000b0 22 6e f2 bb b1 f2 d2 3d 30 60 37 3e a3 8c 0c be
       -0.0073983828 0.10300196 0.17907786 -0.13725524
0000c0 ad cf c4 bb 21 d1 75 3e a1 38 bb bd 80 89 3c bd
       -0.006006202 0.24005558 -0.091416605 -0.046029568
0000d0 2a 24 8c 3d f8 21 23 3e f8 aa 0e bd f3 04 13 3e
       0.06842835 0.15930927 -0.034831017 0.14357357
0000e0 03 de 1d 3e aa 25 3e 3d fc 03 bc 3d 8c 52 5a bd
       0.15416722 0.046422638 0.091804475 -0.05330138
0000f0 0e f1 6d 3d 81 c8 52 bc 43 b7 22 3d 84 93 82 3e
       0.058091216 -0.012865187 0.039725553 0.2550317
000100 b0 6d 95 bd 66 df a8 bd e8 ff 5b bd 91 88 43 3c
       -0.07296312 -0.08245735 -0.053710848 0.011934415
000110 a0 9f 9c bd e3 55 0e 3d f8 df 28 bd 78 cf 4c be
       -0.076476336 0.034749877 -0.04122922 -0.20001018
000120 00 5e 05 be e9 1f b2 bb 52 88 f1 bd cc 97 74 3d
       -0.1302414 -0.005435933 -0.11793579 0.059715077
000130 00 57 4e 3c c4 fd 35 bb 2e dd 0b be a6 a1 83 bd
       0.012593985 -0.0027769664 -0.13658592 -0.06427316
000140 4c 1f 15 be 1f 31 a9 3d 0e 3f 8f bd 84 e5 df bd
       -0.1456272 0.08261322 -0.069944486 -0.109324485
000150 c0 f7 21 3d 1f dc 21 3e 31 8c c4 bd 62 d2 26 be
       0.039542913 0.15806626 -0.09597052 -0.16291192
000160 25 43 0a be f7 32 cd 3d 73 a1 61 be 42 b0 a7 bd
       -0.13502176 0.100194864 -0.22034244 -0.081879154
000170 a4 08 79 bc 02 57 fd bd ed be 04 3e 98 95 bf bd
       -0.015199814 -0.12370111 0.12963457 -0.093547046
000180 16 91 10 bd a7 c6 3f 3e ba 8a bc bd 65 0c 06 be
       -0.035294615 0.18728124 -0.092061475 -0.13090666
000190 5d f0 25 3e 1a e9 7d bd f8 1d fe bd 83 38 46 bd
       0.16204973 -0.06198988 -0.1240806 -0.048393738
0001a0 ee a1 0a 3d 6d ca cb 3d fc b0 96 bc 93 6b 0f 3e
       0.033845834 0.09950719 -0.01839494 0.1400588
0001b0 2d 02 f9 bc 33 f1 b2 3c 27 c4 e5 bd ea 30 23 bd
       -0.030396545 0.021843528 -0.11219054 -0.03984157
0001c0 07 6c aa bc fc c7 31 be c9 3a e6 bd 14 79 4e 3d
       -0.020803465 -0.17361444 -0.11241681 0.050408438
0001d0 4b f1 f9 bd 7a 05 dd 3d af 96 9e bc 15 05 59 3e
       -0.12204226 0.1079206 -0.01935896 0.21193345
0001e0 cb 7f 1b be f5 00 ac 3b 04 1e 27 be 65 1d 2c 3e
       -0.15185468 0.0052491375 -0.16320044 0.16808088
0001f0 a6 49 5f 3d 43 64 15 bd fa ee eb bb 94 e6 02 3e
       0.054513596 -0.03647257 -0.007200119 0.12783271
000200 57 5f f6 3d 45 a5 98 3d 87 df ac bc 7a 7c 21 3d
       0.120299034 0.07453398 -0.02110268 0.03942535
000210 6e 8c 04 be 1c ce d0 bd 9b 88 2a 3e 46 76 13 3d
       -0.12944195 -0.10195562 0.16653673 0.036001466
000220 86 8e f8 3d 8e 2f 02 3e fe 08 d0 3d 63 1f ff bd
       0.12136559 0.12713453 0.10157965 -0.124571584
000230 93 f5 49 3c 36 31 15 bc 9d 1f 6f 3c 24 97 40 bd
       0.012326616 -0.009105971 0.01459494 -0.04701914
000240 44 bc 4c bd 3f 33 80 be 23 6a 04 be 46 4d 20 3e
       -0.04998423 -0.25039098 -0.12931113 0.15654477
000250 47 93 52 be dc 05 da bd 10 b2 a5 3a 38 88 21 3d
       -0.20563994 -0.10645649 0.0012641568 0.03943655
000260 a0 03 88 3d db 59 20 be 96 74 c9 3d 47 40 d5 bc
       0.066413164 -0.15659277 0.0983669 -0.026031626
000270 07 2e ce bd 16 e5 06 3e f7 e4 9c bc 80 ef 24 bd
       -0.10067373 0.13173327 -0.019152148 -0.040267467
000280 15 19 9a 3c 98 6a d4 bd 7b 97 d9 3c 15 24 d9 3d
       0.018810788 -0.10371894 0.02656149 0.10602585
000290 1f 84 ff 3d e1 c3 7f bc e0 7e 0a bd e1 88 b8 bd
       0.12476372 -0.015610666 -0.033812404 -0.090104826
0002a0 21 c2 c6 3c 68 e8 d1 bd 87 53 94 be 70 ea b8 bd
       0.02426249 -0.10249406 -0.28969976 -0.090290904
0002b0 0d b0 f6 3d 49 8f 72 3d 91 43 df bc cc 99 d8 3d
       0.12045298 0.05921868 -0.027253898 0.105762094
0002c0 82 6b 31 3e 63 65 8e bc bc 0c 06 bd 9d 99 63 3d
       0.17326167 -0.01738233 -0.03272699 0.05556642
0002d0 16 cd d3 3d fd be 26 bd 70 84 0b be 56 30 21 bd
       0.103418514 -0.040709484 -0.1362474 -0.039352737
0002e0 f0 3b 01 be d0 5b 7d 3c 28 20 d1 bd 72 9d 04 3d
       -0.1262052 0.015463784 -0.102112114 0.032376714
0002f0 1c d2 a7 3d d2 e3 7b 3c eb c5 1b 3d f1 38 0c be
       0.08194372 0.015374141 0.038030546 -0.13693596
000300 c0 02 81 bb c7 39 25 be 7b 72 3f be a0 fd a4 3c
       -0.0039370954 -0.16135322 -0.18696015 0.02014047
000310 47 5b f8 bd 61 0b 97 bb 7f a6 2d bd 73 d5 ab bd
       -0.12126785 -0.004609511 -0.04239511 -0.083903216
000320 9a 99 89 bd c0 ab c6 bd d2 39 a4 3d 30 1b 0e be
       -0.0671875 -0.097007275 0.08018841 -0.13877559
000330 0b 13 39 bc 36 64 eb 3d 99 30 3e 3e 48 9d a9 bd
       -0.011296044 0.11493723 0.18573226 -0.08281952
000340 6d 09 ac bd 6c 47 24 3d 84 31 b2 bc 1e 49 fa bd
       -0.08400235 0.040107176 -0.021752127 -0.12220977
000350 13 54 e8 bd 0e a2 95 3d 38 00 6e 3d 67 19 c6 bd
       -0.11344161 0.073063 0.058105677 -0.09672814
000360 77 c9 b7 3d 78 8c f8 3d 45 da f9 bd c4 7a 84 bd
       0.08973973 0.12136167 -0.12199835 -0.06468728
000370 4e 33 a6 bc af 00 4d bc 3c 5d a1 3d 40 4d 99 3d
       -0.020288136 -0.01251237 0.07879111 0.074854374
000380 84 ca ce bd 32 7f 16 bd 4a c4 2e 3e a5 c2 31 be
       -0.100972205 -0.036742397 0.17067066 -0.17359407
000390 b0 6b 43 3d 38 92 41 3e ed fc f6 bd 20 66 c1 3d
       0.04771012 0.18903434 -0.120599605 0.09443307
0003a0 d1 ff 91 3d 23 6f 20 3e 05 b0 cd bd ae ba 87 bd
       0.07128871 0.15667395 -0.10043339 -0.06627403
0003b0 e5 5d c1 3d 47 ce ec bd cd 40 4d 3d 9c ad 9f bc
       0.09441737 -0.11562782 0.050110627 -0.019491963
0003c0 6a 2a 1c be 38 b3 d3 3d 67 ad 9f 3d 6d 18 84 bd
       -0.15250555 0.10336918 0.07796746 -0.06449971
0003d0 8f 98 ad 3c be 5e 8a bc 89 83 9b bd db af e2 bd
       0.02119091 -0.01689088 -0.07593448 -0.11068698
0003e0 cd 6b 0c 3e 94 52 6b 3d 4e ae 3f 3e e6 4b 2d 3e
       0.13712998 0.0574518 0.18718836 0.16923484
0003f0 04 5b ca 3d 65 58 c1 3d 76 00 d0 bd 1d e3 66 bd
       0.09880641 0.09440688 -0.10156338 -0.056368936

gnn.convs.2.att_src f4 [1, 4, 32]
000000 89 a4 ed bd 5c 65 87 be 69 fd b8 be 09 e9 e0 3e
       -0.11603648 -0.2644452 -0.36130837 0.43927792
000010 05 b8 26 bd 06 8e b2 be c4 3a 97 be c1 46 34 3f
       -0.04070284 -0.3487398 -0.29537022 0.7042046
000020 5a b0 e2 3e 56 2c 5b 3d 3a bf 0a 3e f8 67 1f bf
       0.4427517 0.05350908 0.1354951 -0.6226802
000030 9c 03 de be 65 84 c2 3e 0a 55 c4 3e ed e5 d6 3e
       -0.4336213 0.37991634 0.3834613 0.41972294
000040 b7 a4 f5 bc a5 57 31 bf 1e cd 93 be 7e 5a 9e be
       -0.029985769 -0.6927436 -0.2886743 -0.30928415
000050 dc cf 39 be 47 8f b7 3d c7 05 2d 3e 6f 6a 29 bf
       -0.18145698 0.08962875 0.16896735 -0.6617803
000060 71 03 5d 3e ee 17 70 be 2d fd 69 3e c9 4a 9f bc
       0.21583344 -0.23446628 0.22850485 -0.01944484
000070 ce ce cb bd 43 7d 89 be 1d 0d 18 bf 7c 0e b2 be
       -0.09951554 -0.2685338 -0.5939501 -0.34776676
000080 3f ee da 3e a4 28 e3 3e fc 60 ec be 04 7e 68 be
       0.42759892 0.44366944 -0.46167743 -0.22704321
000090 6b df ff be 8a a4 5d 3e 98 e6 10 bf 17 6a 79 be
       -0.49975142 0.21644798 -0.5660186 -0.24356876
0000a0 95 6f c6 3e ce 6d 05 be f9 fe 7f 3e d3 12 ad be
       0.38757005 -0.13030168 0.24999608 -0.33803424
0000b0 f1 bc 47 be aa 27 87 be 5d e7 82 3e c2 08 5a be
       -0.19505669 -0.2639745 0.2556714 -0.21292403
0000c0 d3 10 41 3c 1f 68 bc be 7f 6c 33 3d ae 06 d9 3d
       0.011783796 -0.36798188 0.04380464 0.10596977
0000d0 93 60 97 3d 1f ea e7 bd 27 e3 59 be 64 1b 1b be
       0.07391467 -0.11323952 -0.21278058 -0.15147167
0000e0 78 18 d0 bb 26 50 10 3f 31 fe f3 be f6 ab f2 3d
       -0.006350573 0.56372297 -0.4765487 0.11849205
0000f0 64 c2 30 bd 87 aa b4 be 66 c0 42 3d b7 2f fb 3e
       -0.043154135 -0.35286352 0.047546767 0.4905984
000100 54 e2 95 be 88 aa f3 3c aa 3a 0b 3f ed ae ea bd
       -0.29274237 0.029744402 0.5438639 -0.11459146
000110 da 49 2c bf 20 08 c1 3c 19 57 85 3d 2d 5d 4e 3e
       -0.6730019 0.023563445 0.06510753 0.20152731
000120 f7 f4 f6 be d0 b1 97 be 1a 87 6d 3d bb 5f 88 3c
       -0.48233768 -0.29627848 0.05799017 0.01664721
000130 92 4c 7b 3d 08 e1 9d be b2 9b 88 3e cb 82 0b 3f
       0.06135232 -0.30835748 0.26681286 0.5449645
000140 a8 3c f5 be 13 be f9 bd 01 4b 07 be 74 fa 4b bf
       -0.4789784 -0.12194457 -0.13212205 -0.79679036
000150 38 4e af be 22 5d 23 be 5a 6c 13 3f cc 82 4a be
       -0.34239364 -0.15953496 0.57587206 -0.19776458
000160 75 31 02 be 43 22 26 be 96 94 8a 3e 4c 8e 13 bd
       -0.12714179 -0.16224007 0.27066487 -0.036024377
000170 d1 10 81 be f9 b8 23 bf 4f 06 99 bd 05 78 ec 3d
       -0.25208142 -0.6395412 -0.074719064 0.115463294
000180 be 16 b0 bc 3b fd d6 be f5 95 0e bd 73 d3 89 bf
       -0.02149522 -0.41990075 -0.03481098 -1.0767654
000190 0d 2f 2b 3f 91 73 c9 3e 5c 16 32 be 4b 54 a0 bf
       0.6686867 0.39345983 -0.17391342 -1.2525724
0001a0 c1 07 3c bf 2b 4c 60 bf d8 3e 3f 3f d5 ce 96 bf
       -0.7344933 -0.87616223 0.74705267 -1.178187
0001b0 41 d1 b6 be b0 2e b8 be 39 d7 a1 be 88 00 8d 3d
       -0.35706523 -0.3597312 -0.31609514 0.06884867
0001c0 93 21 40 3f da 39 5e bf 20 af 8a be d5 3c c4 bd
       0.7505123 -0.86807024 -0.27086735 -0.09581915
0001d0 78 89 4b bf 78 4e a0 be 0c f1 cb 3e 83 f8 b4 3d
       -0.79506636 -0.31309867 0.39832342 0.08836462
0001e0 7f c9 9e 3d 36 f2 19 be 3e 06 ec bd 34 53 d2 be
       0.07753276 -0.15033802 -0.11524628 -0.41079104
0001f0 4d f7 9d 3e 98 22 82 be 03 dd 6f be 31 df a2 3e
       0.30852738 -0.25417018 -0.23424153 0.31810907

gnn.convs.2.att_dst f4 [1, 4, 32]
000000 e0 0c 33 bd cd 83 b2 be 9d 36 a7 3e 44 9c 27 3e
       -0.04371345 -0.3486618 0.32658854 0.16368204
000010 18 21 20 be de a3 b7 3e 0c d3 4b 3d 60 9d 67 3d
       -0.15637624 0.35867208 0.049761817 0.05654657
000020 ca 7b 9e be 40 26 ef 3d e7 a2 82 be 48 12 36 3d
       -0.3095382 0.116772175 -0.2551491 0.044451028
000030 11 15 8d bd 8b 23 e9 3e ae 07 6c be 46 43 83 be
       -0.06888784 0.4553493 -0.23049805 -0.25637263
000040 84 8a 69 be d0 91 c1 3e 50 00 18 be 57 d9 ab be
       -0.22806746 0.3780656 -0.14843869 -0.33564255
000050 7c 02 57 be 09 0a 71 be ae 91 95 3e ec 77 af be
       -0.20997041 -0.23538984 0.29212707 -0.3427118
000060 cc 25 69 3c 84 9e 57 bd ec 59 bb bd 1d ce 8e bd
       0.014230203 -0.052641407 -0.091480106 -0.06972907
000070 d9 18 a6 be 82 cc d7 be 2b 6f 89 be e3 1a a6 bd
       -0.32440832 -0.42148215 -0.26842627 -0.08110597
000080 45 c7 9a be 49 da a2 be eb d8 62 bd d0 99 9c be
       -0.30230156 -0.31807163 -0.05538265 -0.305861
000090 84 7f 8b bc 23 b7 85 be 52 2c d9 bd dd 63 84 3d
       -0.017028578 -0.26116285 -0.106041566 0.0646436
0000a0 41 33 f7 be 72 a4 3a be 62 7a 47 3d 66 d6 c4 be
       -0.4828129 -0.18226793 0.048700698 -0.38444823
0000b0 db b1 73 3e dd 32 32 3e 4f 44 00 be 49 ea 96 be
       0.23798315 0.17402215 -0.12526058 -0.2947562
0000c0 f8 9d 49 be 00 69 76 bd 69 b2 91 bd ff ba 96 3e
       -0.19689167 -0.06015873 -0.07114107 0.29439542
0000d0 76 77 03 3e db 17 e8 bd 1e d9 73 be fd d4 2c 3e
       0.1283854 -0.11332675 -0.23813292 0.16878124
0000e0 57 d8 4b 3e dc 71 0b 3e fa 74 04 3f ac a6 5d be
       0.19906746 0.13617653 0.5174099 -0.21645612
0000f0 f9 21 13 be d8 63 c7 be 57 92 a1 3d f0 c8 f1 bd
       -0.14368428 -0.38943362 0.0788924 -0.11805904
000100 7e d0 7f 3e 02 16 08 3e ab 68 09 3e 91 0a 42 3c
       0.24981877 0.13289645 0.13418834 0.01184334
000110 00 8c b7 be ac 06 b0 3e f2 fc 84 be b1 b5 a4 be
       -0.35849 0.3438009 -0.25974232 -0.3216987
000120 3e 80 8a be d8 7e 3f 3c 7b 2b 97 3e d8 2a 75 bd
       -0.27050966 0.011687957 0.2952536 -0.059855312
000130 96 f9 07 3e 07 8b 0f 3d 8a bb 13 be f1 64 af 3e
       0.13278803 0.035044696 -0.14427009 0.342567
000140 15 0e e5 3e ec 05 e2 bd f2 84 36 3e 7a 31 d9 bd
       0.44737306 -0.11036286 0.17824152 -0.1060514
000150 f8 64 77 be 49 84 b7 be ea 0e 74 bd b4 8a c7 be
       -0.2415961 -0.35843113 -0.059584536 -0.3897301
000160 8d e3 13 be b9 03 91 3e e5 85 fd 3d 4c 3c 83 bc
       -0.14442272 0.28323153 0.12379054 -0.016019963
000170 af 12 19 be 97 be 6e be 62 8b d3 3d 38 36 14 3e
       -0.14948533 -0.23314892 0.103293195 0.14473808
000180 43 d1 e3 be ab a2 8e be 9a b5 89 be a0 8b f4 3d
       -0.44495592 -0.2785848 -0.26896363 0.11940694
000190 ad 87 a9 3c d0 c0 c2 3e 50 30 9d bb 80 22 64 be
       0.020694578 0.3803773 -0.004797019 -0.22278786
0001a0 e7 cd bc 3e 10 0d cc be 43 df ce bd 57 99 c1 3e
       0.3687584 -0.39853716 -0.101011775 0.37812302
0001b0 20 1e 99 bc c0 1e 48 be 86 3e 60 3e 41 18 bc 3b
       -0.018691123 -0.1954298 0.21898851 0.005740196
0001c0 05 20 c2 bd 73 f8 ba 3d cd 78 11 3c 69 c6 97 3e
       -0.094787635 0.09129419 0.008878899 0.29643562
0001d0 ea f2 40 3e dc c8 cd be 1f 3c 10 bd d9 9c b2 3e
       0.18842664 -0.40192306 -0.035213586 0.3488529
0001e0 58 1f 2d 3e c2 d2 83 bb c4 37 28 be 1a 76 11 3e
       0.16906488 -0.004022927 -0.16427523 0.14205208
0001f0 1a c6 b5 be 82 db 11 be 7d b1 13 3e 9a ea d9 be
       -0.35502702 -0.14243892 0.14423175 -0.425618

gnn.convs.2.bias f4 [128]
000000 1a 5e 5f bc f7 53 62 bd 72 72 bf bc e1 43 ee bc
       -0.013633275 -0.055255856 -0.023370001 -0.029085102
000010 63 47 fa bc 8b f5 bb 3c f6 e9 8e 3b bc 9c 61 3c
       -0.030551618 0.022944232 0.0043613864 0.013770279
000020 01 83 0f bd 8b 12 8f bd 27 0b 21 3c 84 73 25 3c
       -0.035037044 -0.06985959 0.009829319 0.010098342
000030 14 5a 84 bc 29 78 43 3c ad 40 b1 3a 19 64 c9 3b
       -0.016156234 0.011930504 0.0013523303 0.006145966
000040 92 69 19 3d 8f f1 b8 bd 73 65 89 bd a7 21 fb bb
       0.037454195 -0.09030449 -0.06708803 -0.007663924
000050 a1 f8 91 bc 2b 00 a3 bc a0 f5 bd 3c 39 ca 80 bd
       -0.01781875 -0.019897541 0.023188412 -0.06288571
000060 35 f1 93 ba ee dc 81 3c 04 d1 97 bc 66 93 b9 3c
       -0.0011287095 0.015852418 -0.018532284 0.022653293
000070 68 bc 90 3b 65 e7 fe bc 05 10 7b bd a1 a3 0d bd
       0.004416991 -0.031116197 -0.061294574 -0.034579877
000080 bc 8f d8 bc 81 39 9d bc a1 7d ad bd dc a6 25 bb
       -0.026435725 -0.019192459 -0.084712274 -0.0025276458
000090 cf 25 88 bc 5f 77 e6 3b 40 ce 44 3a c7 f9 3f 3c
       -0.016619591 0.007033273 0.000750754 0.011717266
0000a0 4c 31 9f 3b 63 e8 6d bc 69 17 7c 3c 78 4f a0 3c
       0.0048581716 -0.014520737 0.015386441 0.019569144
0000b0 71 4b e2 3c 0d 84 03 bd a5 ea 0a bd 69 05 b8 bb
       0.027623864 -0.032108355 -0.03391518 -0.0056158793
0000c0 bb f0 86 3c b9 1d d2 bc 1f 9a 52 3c c8 ac 2e bd
       0.016472211 -0.025648938 0.012854128 -0.042645246
0000d0 30 7d fe 3c fd a2 f7 bc 06 5c 1d 3c 8c 35 4f 3b
       0.031065553 -0.030229086 0.00960446 0.003161761
0000e0 4a e0 9d bc f8 c1 e5 3c b4 94 38 3d 01 be 0c 3c
       -0.019271988 0.028046593 0.04506369 0.008590222
0000f0 e6 9f eb bc 76 6d e9 39 be a4 a3 3c 89 35 ba bc
       -0.028762769 0.00044522778 0.019976016 -0.022730606
000100 0f cd 1f bd 7d c8 99 3c f5 45 ff bb c0 36 9a 39
       -0.03901392 0.018772358 -0.007790322 0.0002941396
000110 bd 92 49 bd 6c db 93 3c 6a 81 f3 3c cc f4 2d bd
       -0.049212206 0.018048964 0.029724795 -0.042469785
000120 2a 97 05 3c 16 3d b1 3c 4f 4c 2e ba e1 de 1a bd
       0.008153716 0.021635573 -0.0006648944 -0.03781021
000130 2b 42 af bc dc e8 1c bd d8 c1 71 bb c7 02 08 3b
       -0.021393856 -0.03830801 -0.0036889222 0.0020753609
000140 11 bb 4b bc 56 8c c0 3c 61 04 2e bd c9 e1 ab bc
       -0.012434737 0.023504417 -0.042484645 -0.020981686
000150 79 47 b1 bc 1d 84 1e 3c 81 0b 58 ba 7f b1 81 bc
       -0.021640526 0.009675053 -0.00082414603 -0.015831707
000160 ee db 40 bc 63 77 ba bb bd 02 25 bd e8 24 a3 bc
       -0.011771185 -0.0056905015 -0.040285815 -0.01991506
000170 55 3f f1 ba 7e 9e 81 bd ca c7 16 bd 7a dd a0 bc
       -0.0018405715 -0.06329058 -0.036811627 -0.019636858
000180 9e 75 3d bd eb 82 09 bc de 0e ce bb 30 d7 e5 bc
       -0.046254747 -0.00839303 -0.0062883934 -0.028056711
000190 d5 31 5f 3c 17 92 6a 3c 95 fe ac 3c 48 ad 7f bd
       0.013622721 0.014317057 0.021117488 -0.062421113
0001a0 cb 16 2f bd 49 21 93 3b 01 ee 2b bd 03 42 b3 bb
       -0.042746346 0.004490052 -0.041975025 -0.0054705157
0001b0 09 2b a2 bc 10 dc 42 bd 6e c6 e0 bc 08 d9 3a 3c
       -0.019795911 -0.04757315 -0.027438369 0.011404283
0001c0 cc 6b 06 bd 0c 82 cf bd f5 4b 15 bc 13 dd cc bc
       -0.032817647 -0.10132226 -0.009112348 -0.02500776
0001d0 5c a9 93 3c f0 de f2 bb 3d 24 a5 3c ed 82 75 ba
       0.018025093 -0.00741183 0.020158881 -0.0009365518
0001e0 06 dc 1b 3c aa 52 3f 3c 40 f6 4e bc 46 10 fa 3c
       0.009512907 0.0116774235 -0.012631953 0.030525338
0001f0 58 65 cc bc b6 64 f2 3b b5 45 84 bc d9 e7 ae 3c
       -0.024950668 0.0073972596 -0.01614652 0.021350788
