3d/trained_model_seed1_GAT_polar_knn3_unit_sphere_1000noise_dynamic.pth (torch, 705406 bytes, 37 tensors)

gnn.convs.0.att_src f4 [1, 4, 32]
0	0x3f0e4b42	0.55583584
1	0x3d9dfac8	0.07713848
2	0xbe3d1268	-0.18464053
3	0xbe139dfd	-0.14415736
4	0xbeeb546a	-0.4596284
5	0x3f194603	0.59872454
6	0x3ed24a45	0.41072288
7	0xbed4c95c	-0.41559875
8	0x3e9ddb33	0.30831298
9	0xbe1645c4	-0.14675051
10	0xbd24c7ee	-0.04022973
11	0x3f030bfc	0.5119016
12	0xbea4a1ba	-0.32154638
13	0x3e64f925	0.22360666
14	0xbed14e1f	-0.40879914
15	0x3ea90085	0.3300821
16	0x3e006f0b	0.1254236
17	0x3e8fd1cb	0.28089747
18	0x3e599076	0.21246514
19	0x3ee9cb6c	0.4566301
20	0xbf2e25e5	-0.6802657
21	0xbdae30b0	-0.0850538
22	0xbeb92480	-0.3616066
23	0x3ee4376c	0.44573534
24	0x3e6eb9af	0.2331302
25	0xbe16ed22	-0.14738896
26	0x3e82f37a	0.25576383
27	0x3ed7bc4e	0.42135853
28	0x3ea96a29	0.33088806
29	0x3e6a4c74	0.22880727
30	0xbf331f2f	-0.6996946
31	0xbe86c80e	-0.26324505
32	0xbca45c80	-0.020063639
33	0x3e8d77fd	0.27630606
34	0xbf3845ba	-0.71981394
35	0x3e3cd636	0.1844109
36	0xbebdc9a4	-0.37067902
37	0xbe9c77de	-0.305602
38	0x3ea196df	0.31560418
39	0xbe8d4ba7	-0.2759678
40	0x3ea45f84	0.32104123
41	0xbef4a5df	-0.477828
42	0x3e97982b	0.29608282
43	0xbefa2e3a	-0.48863393
44	0x3f3eaa10	0.74478245
45	0xbef056ca	-0.46941215
46	0x3f4e3135	0.80543834
47	0xbdef8427	-0.11695128
48	0x3e279102	0.1636391
49	0xbf014166	-0.50490415
50	0xbe3dde13	-0.18541746
51	0x3f0e005c	0.554693
52	0xbe15ab0c	-0.1461603
53	0x3eeb06db	0.45903668
54	0xbefadfb8	-0.4899881
55	0xbe67e653	-0.22646455
56	0x3e35a0d2	0.1773713
57	0xbf23b6c6	-0.63950765
58	0x3e9c6457	0.30545303
59	0xbeafefab	-0.3436254
60	0x3f345131	0.7043639
61	0x3f3ca38e	0.73687065
62	0x3ebdaa99	0.37044218
63	0xbde30fe6	-0.11087017
64	0xbea40fb6	-0.32043236
65	0xbe8395c4	-0.257002
66	0x3e4aea4c	0.1981594
67	0x3e13d601	0.14437105
68	0xbe2b9993	-0.16757803
69	0xbe296b04	-0.1654473
70	0xbe6c323e	-0.23066041
71	0xbe5822f7	-0.21107088
72	0xbd6a32f6	-0.057177506
73	0xbe10ae3a	-0.14128962
74	0xbcfb403e	-0.030670281
75	0x3e6258ed	0.22104235
76	0xbe4aaca9	-0.19792427
77	0xbe270595	-0.16310723
78	0x3c2559fc	0.010092255
79	0xbf3a9c20	-0.7289448
80	0x3d7227ad	0.05911987
81	0x3ebe3031	0.37146142
82	0xbdefb72c	-0.11704859
83	0x3eaa3626	0.33244437
84	0x3e402329	0.18763413
85	0x3e0f203e	0.13977143
86	0xbe4cd31a	-0.20002404
87	0x3d8ae660	0.06782222
88	0x3d869330	0.065710425
89	0x3d420921	0.047371987
90	0xbf234c8e	-0.6378869
91	0x3ee34f11	0.4439626
92	0x3e912af1	0.28353074
93	0x3e05d2c0	0.13068676
94	0xbe7491a6	-0.23883685
95	0x3e5d0763	0.21584849
96	0x3ead5b32	0.3385864
97	0xbf4530e8	-0.7702775
98	0x3ea12c77	0.31479236
99	0x3eb55e65	0.3542358
100	0xbf5edf0e	-0.87059104
101	0xbee589bd	-0.44831648
102	0xbeab99e4	-0.33515847
103	0xbf1e0e29	-0.61740357
104	0x3e2971c5	0.16547306
105	0xbebf6472	-0.3738132
106	0x3ee88fa7	0.45422098
107	0x3cac3cb5	0.021025041
108	0xbf29290d	-0.66078264
109	0x3f0eb668	0.5574708
110	0xbf302a10	-0.6881418
111	0xbd0216b0	-0.031759918
112	0x3ed119ae	0.40839905
113	0xbf379a8f	-0.7172021
114	0xbf120371	-0.570365
115	0x3e911e3c	0.2834338
116	0x3efc8d7e	0.493267
117	0x3e93d0fa	0.28870374
118	0xbeb606ab	-0.35551962
119	0x3d5ece56	0.054395996
120	0xbef4737b	-0.47744355
121	0x3efca403	0.4934388
122	0xbef057d8	-0.4694202
123	0x3f190ae1	0.59782225
124	0xbf2cef68	-0.67552805
125	0x3ebb2972	0.36555058
126	0xbeae415a	-0.34034234
127	0xbe210227	-0.15723477

gnn.convs.0.att_dst f4 [1, 4, 32]
0	0xbd517c90	-0.051144183
1	0xbd533914	-0.051568106
2	0x3ec6dfda	0.3884266
3	0x3f0bbbc7	0.545834
4	0xbef30e9e	-0.4747209
5	0xbe018bd5	-0.12650998
6	0xbea67eb2	-0.32518536
7	0x3e5978b5	0.21237452
8	0x3d8b3795	0.06797711
9	0xbed3cfe5	-0.41369548
10	0x3ea54b14	0.32283843
11	0x3e35a646	0.1773921
12	0xbf0a1161	-0.5393277
13	0x3b874d6f	0.004129104
14	0x3cb70aab	0.022343954
15	0xbc1d571c	-0.009603288
16	0xbe59b219	-0.21259345
17	0xbd380c08	-0.04493335
18	0x3d896647	0.06708961
19	0xbe93caf2	-0.28865772
20	0x3f091c2c	0.5355861
21	0xbd976e16	-0.07394044
22	0x3e92f9d4	0.2870623
23	0x3ec5511d	0.38538447
24	0x3c24d479	0.010060423
25	0xbe4309f1	-0.19046761
26	0x3de9df3e	0.11419533
27	0x3cd769ef	0.02629563
28	0x3d9a072c	0.07520899
29	0x3e91366e	0.2836184
30	0xbef18b1c	-0.47176445
31	0xbe447520	-0.19185305
32	0x3e8c67b7	0.27422878
33	0xbe089589	-0.13338293
34	0xbdb9f64d	-0.09080181
35	0xbe22ba35	-0.15891345
36	0xbe435901	-0.19076921
37	0x3e6ac0b0	0.22925067
38	0x3e3cec64	0.18449551
39	0xbe9bf067	-0.3045685
40	0x3eeed3ac	0.46645868
41	0x3e5d179e	0.2159104
42	0xbe8733ad	-0.26406613
43	0x3e32142a	0.17390504
44	0xbdb8fe6e	-0.090329036
45	0xb986b196	-0.00025690784
46	0xbe67d822	-0.22641042
47	0xbddfc722	-0.109266534
48	0xbdf0ec56	-0.117638275
49	0xbe9c7d7a	-0.3056448
50	0xbe86c8f8	-0.26325202
51	0x3ef4d4be	0.4781856
52	0x3e474ecc	0.19463652
53	0x3e571c2e	0.21006843
54	0xbda20cdb	-0.07912608
55	0xbc25d9d1	-0.010122732
56	0xbe4825c6	-0.1954566
57	0x3dad78b3	0.08470287
58	0xbd9ecd22	-0.0775397
59	0xbdd4b155	-0.10385386
60	0x3d4d9f8a	0.050200976
61	0x3ef71b2e	0.48262924
62	0x3cf44919	0.029820012
63	0xbee97b5a	-0.45601922
64	0x3e73f436	0.23823628
65	0x3ea850de	0.32874197
66	0x3e2ffe17	0.17186771
67	0xbe94b873	-0.29046974
68	0xbe9bd5b8	-0.30436492
69	0xbe935ba3	-0.2878085
70	0xbdde2435	-0.1084675
71	0x3e6210e3	0.22076754
72	0xbecdce1b	-0.40196308
73	0x3e077ccd	0.13231201
74	0x3ea7518b	0.326794
75	0x3e60abdb	0.21940558
76	0x3e6ce0ca	0.23132625
77	0xbea4aea8	-0.32164502
78	0xbed4cab9	-0.41560915
79	0x3e9a2cc1	0.3011227
80	0x3d7ce954	0.061745957
81	0x3b8cad57	0.0042931247
82	0x3e5a788a	0.21335045
83	0x3e2ca56f	0.16859983
84	0x3e872beb	0.26400694
85	0xbe26ee27	-0.16301785
86	0xbe4c66fb	-0.19961159
87	0x3cd3cf6c	0.025855742
88	0x3e0db5a2	0.13838819
89	0x3d9445e8	0.07239896
90	0xbea8b892	-0.32953316
91	0xbe917168	-0.28406835
92	0xbe193a76	-0.14963707
93	0x3da42161	0.08014179
94	0xbe1c381b	-0.15255778
95	0x3e4e8823	0.2016912
96	0x3e629fda	0.22131291
97	0xbdd38d9d	-0.10329745
98	0xbece7e34	-0.4033066
99	0xbc9ce110	-0.019150287
100	0x3f038436	0.5137361
101	0x3e8da9ec	0.27668703
102	0xbecabbae	-0.39596313
103	0xbe9cce73	-0.30626258
104	0x3ecfc095	0.40576616
105	0x3ebb2878	0.36554313
106	0x3d8ec039	0.06970257
107	0x3e939f79	0.28832605
108	0x3e21dd6a	0.15807119
109	0x3e52f3d8	0.20600832
110	0x3ef6c06a	0.48193675
111	0xbc9925a0	-0.018694699
112	0xbe8519b0	-0.2599616
113	0xbee16285	-0.44020477
114	0xbdad9bac	-0.08476958
115	0xbe738b12	-0.2378352
116	0xbe1421d2	-0.14466026
117	0xbe7b6d85	-0.24553497
118	0x3db7af63	0.08968999
119	0xbe9c1c35	-0.3049027
120	0xbf048f3f	-0.51781076
121	0x3e021be9	0.1270596
122	0x3e3e4748	0.18581879
123	0xbe7272e0	-0.23676634
124	0xbe732c1d	-0.23747297
125	0xbd34b6f5	-0.044119794
126	0xbe581f1c	-0.21105617
127	0xbf1aa341	-0.60405356

gnn.convs.0.bias f4 [128]
0	0x3a955513	0.0011393152
1	0x3c8cb186	0.017174494
2	0xbc834e5a	-0.016028572
3	0xbd69bdf4	-0.05706592
4	0xbb32c020	-0.002727516
5	0xbcd45b61	-0.02592248
6	0xbbf6a9f4	-0.007527584
7	0xbcaa2261	-0.020768346
8	0x3c172fc9	0.009227701
9	0xbcc29c7c	-0.023756258
10	0xbd7a062b	-0.06104104
11	0xbd762d99	-0.06010208
12	0xbd0fca3f	-0.035104986
13	0xbc7a6b07	-0.015284306
14	0x3c0f37c7	0.008741326
15	0xbc9a6aca	-0.01884975
16	0xbb5684c0	-0.0032732934
17	0x3cdf4a26	0.027257036
18	0xbd436acf	-0.047709282
19	0x3c4ed678	0.0126243755
20	0xbd162865	-0.036659617
21	0x3bd4715b	0.0064832396
22	0xbb9a4469	-0.004707862
23	0xbcba0e22	-0.022711817
24	0x3c2c9372	0.010533201
25	0xbc803cc8	-0.015653983
26	0xbced66a1	-0.028979601
27	0x3c0e183f	0.008672773
28	0xbc04f81a	-0.008115793
29	0x3ba1aad3	0.004933694
30	0x3cda7308	0.02666618
31	0xbcbbe135	-0.022934536
32	0xbbe064cf	-0.006847955
33	0xbbc0860c	-0.0058753546
34	0xbd10ec00	-0.035381317
35	0xbc8eaad9	-0.01741545
36	0xbcd631c4	-0.026146777
37	0x3cf36713	0.029712236
38	0xbc7467ca	-0.014917323
39	0x3d329209	0.0435963
40	0xbd35b470	-0.04436153
41	0xbd3e611a	-0.046479322
42	0x3d0cb5fb	0.034353238
43	0xbc1fe5a7	-0.009759343
44	0xbc1114e5	-0.008855079
45	0x3d0a112e	0.03370779
46	0x3c88aa33	0.01668272
47	0xbcb9c25b	-0.022675684
48	0x3d9d35f6	0.07676308
49	0x3b630f41	0.0034646543
50	0xbd3d5040	-0.04621911
51	0x3d4dfaeb	0.050288122
52	0xbc7b3be2	-0.015334101
53	0xbca03910	-0.01955846
54	0xbd475293	-0.048662733
55	0x3c627b01	0.013823272
56	0x3cd03408	0.025415435
57	0xbd086a19	-0.033304308
58	0x3c6a4d7c	0.0143007
59	0x3c0b0603	0.00848532
60	0xbb804bc2	-0.003915281
61	0xbcabb1ff	-0.020958899
62	0xbd26583a	-0.040611483
63	0x3caa1cdd	0.020765716
64	0xbc16a57a	-0.009194726
65	0x3d4fd7ab	0.050742786
66	0xbad093f7	-0.0015913238
67	0xbbf4d9c6	-0.0074722497
68	0xbc667db6	-0.014068058
69	0xbcce2ac1	-0.025166871
70	0x3ca4fcf0	0.020140141
71	0x3d46ea68	0.04856339
72	0xbc297538	-0.0103428885
73	0xbd7029b4	-0.05863352
74	0xbaa23006	-0.0012373931
75	0x3cd30d76	0.025763255
76	0x3cbfb71d	0.023402745
77	0x3d10eb34	0.035380557
78	0xbb9ed2d7	-0.0048469114
79	0xbcc01fa0	-0.02345258
80	0x3d13acf3	0.03605361
81	0x3d31b83e	0.043388598
82	0xbc7ba270	-0.015358552
83	0xbcf72a32	-0.030171487
84	0x3c1efc8b	0.009703766
85	0xbb0fc300	-0.0021936297
86	0x3ba205c3	0.0049445345
87	0x3ba59ef2	0.005054348
88	0x3ca238f4	0.019802548
89	0x3c5e81cc	0.013580751
90	0xbc1a30b5	-0.009411027
91	0x3c8995b3	0.016795015
92	0xba5bdc6f	-0.0008387034
93	0xbcbe60e7	-0.023239566
94	0x3caafba7	0.02087195
95	0xbb88c838	-0.0041742586
96	0xbd29f95a	-0.041497566
97	0x3cea0e28	0.028571203
98	0xbd0e272f	-0.034705337
99	0x3ce6f713	0.028193986
100	0xbd1df08c	-0.03855948
101	0x3c0c9359	0.008580052
102	0x3d1ab808	0.037773162
103	0xbd21b19c	-0.039476022
104	0xbc50bc76	-0.012740245
105	0xbd3f1463	-0.0466503
106	0x3c47e8ae	0.012201471
107	0x3ccf8442	0.02533162
108	0xb9dbc4eb	-0.0004191765
109	0x3cd26595	0.025683204
110	0x3d17df1f	0.03707802
111	0xbd035fb5	-0.032073695
112	0xbc94d119	-0.018166112
113	0x3d64edfa	0.055891015
114	0x3d16dc58	0.03683123
115	0xbc26339a	-0.010144139
116	0xbc0311dd	-0.007999864
117	0xbd0f853e	-0.03503918
118	0xbd698386	-0.057010196
119	0x3b426075	0.0029659544
120	0x3d2ab22f	0.041673835
121	0xbd12666e	-0.035742216
122	0x3c16b31b	0.0091979755
123	0xbcb95e3c	-0.022627942
124	0xbc4bb2d3	-0.012432772
125	0x3d65e418	0.05612573
126	0x3bda325b	0.006658835
127	0x3bc4235b	0.00598566

gnn.convs.0.lin.weight f4 [128, 22]
0	0xbc86c5bb	-0.016451707
1	0xbd59e9e6	-0.05320158
2	0x3e4bd3be	0.19904992
3	0x3db18dcf	0.08669626
4	0x3de500f3	0.11181822
5	0xbe45b6ed	-0.19308062
6	0x3de99e94	0.114071995
7	0x3e31eb12	0.17374828
8	0x3e32f026	0.17474422
9	0xbe39c03b	-0.18139736
10	0xbe1ea780	-0.15493584
11	0x3d9f02b1	0.07764185
12	0xbdfe567a	-0.12418838
13	0x3dc39d1e	0.09551452
14	0x3d5281c2	0.051393278
15	0x3f0ee10b	0.5581214
16	0x3d1559e7	0.03646269
17	0x3c9112db	0.017709186
18	0xbd113eb7	-0.0354602
19	0xbe7b74a7	-0.24556218
20	0xbd635d18	-0.055508703
21	0xbdccad2f	-0.0999397
22	0x3e58b8c4	0.21164232
23	0xbd853065	-0.06503371
24	0xbde57a04	-0.11204913
25	0x3d3b081b	0.045662027
26	0x3d5fe0a4	0.054657593
27	0x3e531714	0.20614272
28	0xbe5cc212	-0.21558407
29	0xbe180a04	-0.1484757
30	0x3d42f095	0.04759272
31	0x3d8f8d26	0.07009344
32	0x3d893eaf	0.06701409
33	0xbdd7d9ea	-0.10539611
34	0xbe1f1d44	-0.15538508
35	0xbe385ede	-0.18004939
36	0xbce1a2a4	-0.027543373
37	0xbee42c4f	-0.44565055
38	0x3cf579f8	0.029965386
39	0x3d70b235	0.0587637
40	0x3eb366d3	0.35039386
41	0x3d4a74b4	0.049427703
42	0x3e16e8bb	0.14737217
43	0xbd421f8a	-0.04739336
44	0xbe3c2b5f	-0.1837592
45	0x3d5c7334	0.053820804
46	0x3e6e1097	0.23248516
47	0xbe0b5872	-0.13607958
48	0xbe225969	-0.1585442
49	0x3d9c3471	0.0762719
50	0x3de09b7c	0.10967156
51	0x3de4c39a	0.111701205
52	0x3e121686	0.14266405
53	0x3dfbf719	0.123029895
54	0x3d8795aa	0.06620343
55	0x3db43f98	0.08801192
56	0xbe5a9935	-0.21347506
57	0x3e57f397	0.21089016
58	0x3d8def1b	0.069303714
59	0xbd8a6303	-0.06757166
60	0x3d97a527	0.07404547
61	0xbe2e1435	-0.16999896
62	0x3eb03496	0.3441512
63	0x3e8cd558	0.27506518
64	0x3d6f041b	0.058353525
65	0xbebb935c	-0.36635864
66	0x3d381796	0.04494437
67	0x3d71203f	0.058868643
68	0x3e1ed29b	0.15510027
69	0xbd2e3c67	-0.042538073
70	0x3c64bd8c	0.013961207
71	0x3cb3a5b2	0.021929596
72	0x3de58783	0.112074874
73	0x3df8a80b	0.12141427
74	0xbe306072	-0.17224291
75	0x3cba2ea9	0.022727327
76	0xbdae9c91	-0.085259564
77	0xbdf5c1cb	-0.11999854
78	0xbd28bc04	-0.04119493
79	0x3d921d22	0.07134463
80	0x3df8729e	0.121312365
81	0xbd9f260c	-0.07770929
82	0x3d9d9ed9	0.076963134
83	0x3b746600	0.0037292242
84	0x3c87d034	0.016578771
85	0x3e173502	0.14766315
86	0xbe57ec2d	-0.21086188
87	0xbcca9dc7	-0.024733437
88	0xbe739ef4	-0.23791105
89	0xbe58f843	-0.21188454
90	0xbe5c9a25	-0.21543176
91	0xbe276e90	-0.1635077
92	0xbe3a7766	-0.1820961
93	0xbddceaab	-0.10786947
94	0x3ba4756e	0.0050188815
95	0x3c257ad9	0.01010009
96	0xbe129cd7	-0.14317642
97	0xbe5153d5	-0.20442136
98	0x3ccada36	0.024762254
99	0xbd215c5d	-0.039394725
100	0x3dfed717	0.12443369
101	0xbe321ac4	-0.17393023
102	0x3e196441	0.1497965
103	0x3dabe5ad	0.083934166
104	0xbd2043a0	-0.039126992
105	0xbe097cd4	-0.13426524
106	0x3d8c73b1	0.06858004
107	0x3dd35c83	0.103203796
108	0xbdabfbf0	-0.08397663
109	0x3e184cfa	0.14873114
110	0xbb650ad7	-0.0034949088
111	0xbd65f647	-0.05614307
112	0x3dc0d35f	0.09415316
113	0x3c7fbcad	0.015608949
114	0xbe2755e3	-0.16341357
115	0x3d4601b7	0.04834148
116	0x3e1669fd	0.14688869
117	0x3d296630	0.04135722
118	0x3e0c0eb8	0.1367749
119	0xbdf38d14	-0.11892143
120	0xbdf9ab43	-0.12190869
121	0xbdcfe71c	-0.101515025
122	0x3de0d060	0.109772444
123	0xbde6ace7	-0.11263447
124	0xbd57c2e1	-0.052676085
125	0x3e74c7a1	0.23904277
126	0x3daf2493	0.08551898
127	0xbe1e9d98	-0.15489805
128	0xbf2bc4c4	-0.67097116
129	0xbf248290	-0.6426172
130	0xbd416b41	-0.047221426
131	0xbd592642	-0.053015
132	0xbdb81238	-0.0898785
133	0x3dc2002c	0.09472689
134	0xbe937c16	-0.28805608
135	0xbd9d7e1b	-0.07690068
136	0xbcfb660e	-0.030688312
137	0xbdb25ec8	-0.08709484
138	0x3e16458b	0.14674966
139	0x3e46ff55	0.19433339
140	0xbd8aac98	-0.06771201
141	0x3e25aa31	0.16178204
142	0xbe2a3bbb	-0.16624348
143	0xbc14b645	-0.00907666
144	0x3e3aa16c	0.1822564
145	0x3d4cdef2	0.050017305
146	0x3df35644	0.11881688
147	0x3d9a7f43	0.075438045
148	0xbe4d389f	-0.2004113
149	0x3e4749f9	0.19461812
150	0x3cc27ce0	0.023741186
151	0xbe9993c7	-0.29995558
152	0x3e99ea66	0.30061644
153	0x3c2b39e1	0.010450811
154	0x3e384d80	0.17998314
155	0xbb3a6ab1	-0.002844494
156	0x3d99e4f3	0.07514372
157	0xbdf55322	-0.11978747
158	0xbe474a04	-0.19461828
159	0x3de2e834	0.110794455
160	0xbddb4500	-0.1070652
161	0xbe1500c1	-0.14551069
162	0x3d49e474	0.049290136
163	0x3e1da8ec	0.1539647
164	0x3ddec793	0.108779095
165	0xbdd1b0b1	-0.10238779
166	0xbdfd46aa	-0.12366994
167	0x3d931442	0.07181598
168	0x3e404413	0.18775968
169	0xbe6deea1	-0.23235561
170	0x3db69829	0.08915741
171	0x3dcaf6c7	0.0991035
172	0x3eba2624	0.36357224
173	0x3e65ef7e	0.2245464
174	0x3da0dbe3	0.0785444
175	0xbe4bb6b7	-0.19893919
176	0x3dd04665	0.10169677
177	0xbd62dbbd	-0.05538534
178	0xbe2cef0f	-0.16888069
179	0x3e63a02e	0.22229072
180	0xbe2a931c	-0.1665768
181	0x3e23799c	0.15964359
182	0x3da1b886	0.07896523
183	0xbe409f03	-0.18810658
184	0x3d344e27	0.044019844
185	0xbe21489c	-0.15750355
186	0xbdb4da35	-0.08830682
187	0x3d85223c	0.0650067
188	0xbdffeeae	-0.124966964
189	0x3db28c4f	0.08718168
190	0xbd4572a2	-0.048205025
191	0x3e23eed0	0.16009068
192	0x3e3fff21	0.18749668
193	0x3e06c505	0.13161094
194	0x3dc08edc	0.09402248
195	0x3d8e1d53	0.06939187
196	0x3e61f6c4	0.2206679
197	0xbe991f86	-0.29906863
198	0xbd4ebdf7	-0.050474133
199	0x3d85cbb0	0.06532991
200	0x3da3bd90	0.079951406
201	0x3dfb6b5d	0.12276337
202	0x3d944efa	0.07241626
203	0xbdae5265	-0.08511809
204	0xbd9b6ee8	-0.07589513
205	0xbecd14f5	-0.4005505
206	0xbddb63d2	-0.107123986
207	0x3e4844b0	0.19557452
208	0xbe4afabf	-0.19822215
209	0xbe52fc7c	-0.20604128
210	0x3dc04ea7	0.09390002
211	0xbd0ed21f	-0.034868356
212	0xbd1c6ff0	-0.03819269
213	0xbe2643cd	-0.16236801
214	0x3cb5260a	0.022112865
215	0x3dedb140	0.116060734
216	0x3dabbf5c	0.08386108
217	0x3d64c0b6	0.055847846
218	0xbe8e60fd	-0.2780837
219	0x3dbcfeee	0.092283115
220	0x3e27c026	0.16381893
221	0xbc4408ef	-0.011965021
222	0x3e6f73f8	0.23384082
223	0x3dcfbe48	0.10143715
224	0xbe412515	-0.18861802
225	0xbd98438b	-0.07434758
226	0xbc1c02bb	-0.009522135
227	0xbd5209b9	-0.051278803
228	0xbc83b627	-0.016078068
229	0xbe3f2d54	-0.18669635
230	0x3cdf087e	0.02722573
231	0xbd877932	-0.06614913
232	0xbdecf0b5	-0.11569349
233	0xbdb6a7c2	-0.08918716
234	0xbe55c94b	-0.20877568
235	0x3c83d255	0.016091505
236	0xbdbb663f	-0.09150361
237	0x3e1ca444	0.15297037
238	0xbe38d69c	-0.18050617
239	0x3d51f1d3	0.051256012
240	0x3d7c30f7	0.061570134
241	0xbd5ba1a5	-0.053620953
242	0x3c4eeb2b	0.012629311
243	0xbdc11093	-0.094269894
244	0x3d5f985f	0.05458867
245	0xbc515249	-0.012775966
246	0xbda24be3	-0.079246305
247	0x3db37041	0.08761645
248	0x3dc9ebd4	0.09859434
249	0x3c86cb0e	0.016454246
250	0x3c88ba60	0.016690433
251	0xbd326fdf	-0.04356372
252	0x3dfaf2d5	0.12253348
253	0xbe3b50b7	-0.18292509
254	0x3cefd52b	0.029276451
255	0xbe30b79f	-0.17257546

gnn.convs.1.att_src f4 [1, 4, 32]
0	0xbe969d8c	-0.29417074
1	0xbf882067	-1.0634888
2	0xbcb6fd5f	-0.022337614
3	0xbe26be34	-0.16283494
4	0x3e81b532	0.25333554
5	0xbe8b32fa	-0.2718733
6	0xbe3468a4	-0.17618042
7	0xbece1df2	-0.4025722
8	0xbf2c8094	-0.67383695
9	0x3c95ecdc	0.01830142
10	0xbeb85fcd	-0.3601059
11	0xbe8028a9	-0.2503102
12	0xbc0f71d9	-0.008755171
13	0xbe28ec58	-0.16496408
14	0xbf61e745	-0.88243514
15	0x3e3f88cd	0.18704529
16	0x3eb95d51	0.36204007
17	0x3e373aef	0.17893575
18	0x3f4782a3	0.7793371
19	0x3f015d19	0.5053268
20	0xbd1701be	-0.036866896
21	0x3eb8e650	0.36113214
22	0x3eb5ab40	0.35482216
23	0x3e284929	0.16434158
24	0xbe27df11	-0.16393687
25	0x3db881ba	0.090091184
26	0xbe5a8787	-0.21340762
27	0xbe001d23	-0.12511115
28	0x3e090be3	0.1338344
29	0xbf42dfb1	-0.76122576
30	0x3f343882	0.70398724
31	0x3e40f99c	0.18845218
32	0xbe44a9cc	-0.19205397
33	0xbe184d87	-0.14873324
34	0x3f08963f	0.5335426
35	0x3f03952e	0.51399505
36	0x3e8aa76b	0.27080855
37	0x3f191bb4	0.59807897
38	0x3f2f2010	0.684083
39	0xbeaf97d1	-0.34295514
40	0xbe0c6450	-0.13710141
41	0x3e8afb48	0.27144837
42	0x3ebc2bd5	0.3675219
43	0xbdb5c6eb	-0.08875831
44	0x3dae32b8	0.085057676
45	0xbf47a0eb	-0.77979916
46	0xbd55bc22	-0.05218137
47	0xbe50a96e	-0.20377132
48	0x3d588e41	0.05287004
49	0xbe89fd32	-0.26950985
50	0xbedb78dd	-0.4286565
51	0x3ef11ad4	0.4709078
52	0xbf263ace	-0.6493348
53	0x3c9c7463	0.019098466
54	0xbf2b14f8	-0.6682887
55	0xbf32cebf	-0.6984672
56	0x3e2ff372	0.17182711
57	0xbe979be5	-0.29611126
58	0xbd97c80a	-0.07411201
59	0xbf5915f3	-0.84799117
60	0x3e9fac3f	0.311861
61	0x3ef0cffb	0.47033677
62	0x3ec191b8	0.37806487
63	0xbcaa41d5	-0.020783344
64	0x3e77d44c	0.24202079
65	0xbda6d845	-0.08146719
66	0x3eeafe8e	0.45897335
67	0xbe6cdf4a	-0.23132053
68	0x3e25d6d4	0.16195232
69	0x3f4945b1	0.78621966
70	0x3efc9a44	0.49336445
71	0xbf06a691	-0.5259791
72	0xbf09eafc	-0.5387418
73	0x3f1404cf	0.5781984
74	0x3ebd7226	0.3700115
75	0xbe295c32	-0.16539076
76	0x3f21fc48	0.63275576
77	0x3ea7c494	0.32767165
78	0xbf1c865d	-0.6114252
79	0xbdb55e35	-0.08855859
80	0xbe1a13dd	-0.1504664
81	0xbf415b82	-0.75530255
82	0x3eea7be4	0.45797646
83	0x3d20dca1	0.039272908
84	0x3f011c12	0.50433457
85	0xbe64a24d	-0.22327538
86	0xbe840647	-0.2578604
87	0xbe6e284c	-0.2325756
88	0xbf0f45e7	-0.5596604
89	0x3e1893e9	0.14900173
90	0x3e2b331c	0.16718715
91	0x3e36a4d3	0.17836313
92	0x3e65aa23	0.22428183
93	0x3ec5b4fb	0.3861464
94	0x3e0eab23	0.13932471
95	0x3f59f688	0.851418
96	0xbeb499f2	-0.352737
97	0x3cf7ccef	0.030249087
98	0x3ea976af	0.3309836
99	0xbe7d5b1c	-0.24741787
100	0xbe8fb1b6	-0.2806527
101	0xbe478ba7	-0.19486867
102	0xbe3fec8c	-0.18742579
103	0x3effb7f9	0.49945047
104	0xbe4d02bb	-0.20020573
105	0x3f1d56f8	0.6146083
106	0x3eb94685	0.36186615
107	0xbb51de66	-0.003202343
108	0xbe5749aa	-0.21024194
109	0xbda8c474	-0.082405955
110	0x3e8bb74e	0.27288288
111	0x3e98035f	0.29690072
112	0x3f04496d	0.5167454
113	0x3ed1d6f4	0.4098431
114	0xbdf8230d	-0.121160604
115	0xbe5eafaf	-0.21746705
116	0x3dee9258	0.116490066
117	0xbe984e14	-0.2974707
118	0xbed7bcf2	-0.4213634
119	0x3d50e597	0.051000204
120	0x3da4089d	0.08009455
121	0x3eb66d3a	0.35630208
122	0xbe2aaeb1	-0.16668202
123	0xbea311aa	-0.31849414
124	0xbeb49907	-0.35273
125	0x3eec68ac	0.46173608
126	0xbe9e65b5	-0.3093697
127	0xbf06da75	-0.5267709

gnn.convs.1.att_dst f4 [1, 4, 32]
0	0x3dc451c1	0.09585906
1	0xbe84e27b	-0.2595404
2	0xbe6eb5d0	-0.23311543
3	0x3e576a8b	0.21036737
4	0x3e8cffef	0.27539012
5	0x3e60c1e4	0.21948963
6	0x3d3e72d1	0.046496216
7	0xbe9b6961	-0.30353835
8	0x3c7caa06	0.015421396
9	0xbed750e3	-0.420539
10	0x3e697bc8	0.22801125
11	0x3ebf8442	0.37405592
12	0x3e56d235	0.20978625
13	0xbe9cd0c0	-0.30628014
14	0x3d981279	0.074253984
15	0x3dd85d63	0.10564687
16	0xbe46742c	-0.19380254
17	0xbe907443	-0.282137
18	0x3ea8c3ac	0.32961786
19	0xbe526d8a	-0.20549598
20	0x3e1edfa5	0.15515001
21	0x3ea8fc9d	0.3300523
22	0x3d8abd23	0.06774356
23	0x3ef5e664	0.48027337
24	0xbe1ac9ae	-0.15115997
25	0x3eb3a8eb	0.35089812
26	0xbe753cc0	-0.23948956
27	0xbebe6a05	-0.3719026
28	0x3e06f79f	0.13180397
29	0x3e54cba6	0.2078081
30	0x3de56b72	0.11202134
31	0xbeb55a6d	-0.35420552
32	0xbe375d8d	-0.1790678
33	0xbde8c8ce	-0.113664255
34	0x3d5c1566	0.053731345
35	0xbe8af21a	-0.27137834
36	0x3f01e6c0	0.5074272
37	0xbe790d5d	-0.24321504
38	0xbc885caf	-0.016645757
39	0xbeecc86d	-0.46246663
40	0xbeb420c6	-0.35181254
41	0x3d6d3b53	0.057917904
42	0x3e46dd45	0.19420345
43	0x3ebad80f	0.36492965
44	0xbd13371c	-0.03594123
45	0x3e6f671f	0.23379181
46	0xbdce8b25	-0.100851335
47	0x3e1d35f5	0.15352614
48	0x3de7651a	0.112985805
49	0x3ead1413	0.33804378
50	0x3d81c421	0.06336237
51	0x3ed2a4ab	0.41141257
52	0xbbf2d752	-0.007410922
53	0x3e22f709	0.15914549
54	0xbe2c1800	-0.1680603
55	0x3e85f538	0.2616365
56	0xbced1c0e	-0.028944042
57	0xbddb638b	-0.10712346
58	0xbed0c0c0	-0.40772057
59	0xbea026cf	-0.3127961
60	0xbe017fa7	-0.12646352
61	0x3f15242b	0.5825831
62	0xbe6d0b85	-0.23148926
63	0xbeeda790	-0.46416903
64	0xbd98d1c2	-0.07461883
65	0x3dc702a8	0.097173035
66	0x3edb653a	0.42850667
67	0xbc2a03b5	-0.01037686
68	0x3ede6e19	0.43443373
69	0x3f0210c0	0.5080681
70	0xbe132de5	-0.14372976
71	0xbea4ae7b	-0.32164368
72	0x3ec44735	0.38335577
73	0xbb81fb23	-0.0039667054
74	0x3e261fbe	0.16223046
75	0xbe8c9c58	-0.2746303
76	0xbdebd783	-0.11515715
77	0xbdf5c363	-0.12000158
78	0x3dbb63d8	0.09149903
79	0xbe429ea2	-0.19005826
80	0x3d8a627a	0.06757064
81	0xbecc3abb	-0.39888558
82	0xbda0fed4	-0.078611046
83	0xbe0333ac	-0.1281268
84	0xbe7a1827	-0.24423276
85	0xbdfb5b12	-0.1227323
86	0x3e74b46a	0.23896948
87	0x3eba9717	0.36443397
88	0x3e75fb46	0.24021634
89	0x3e525b73	0.20542698
90	0xbe0a4864	-0.13504177
91	0x3d2a3d25	0.04156222
92	0x3c003e2c	0.007827323
93	0x3d8ef854	0.069809586
94	0xbe487834	-0.19577104
95	0xbecea74d	-0.40362015
96	0xbd01ecc8	-0.031719953
97	0x3eea0413	0.45706233
98	0xbca07866	-0.01958866
99	0x3e5ce9d1	0.21573569
100	0xbd3417fa	-0.04396818
101	0x3eaccdb5	0.33750692
102	0x3ebcaa02	0.36848456
103	0x3e072965	0.13199385
104	0x3da7de44	0.08196691
105	0x3e942d5b	0.28940853
106	0x3cbf7e25	0.02337558
107	0xbe655ae2	-0.2239795
108	0x3d3f688c	0.046730563
109	0xbee15860	-0.44012737
110	0xbedfa329	-0.4367917
111	0xbd9f7d2f	-0.07787549
112	0xbcaae654	-0.020861782
113	0xbda8d07c	-0.0824289
114	0xbdbb0553	-0.09131875
115	0x3e658f4f	0.22417949
116	0x3e2afabc	0.1669721
117	0xbc2d9157	-0.010593734
118	0xbe7dc031	-0.24780346
119	0xbe86b757	-0.26311752
120	0xbe8b9ee0	-0.2726965
121	0xbe83e266	-0.25758666
122	0xbea322ed	-0.31862584
123	0xbe843498	-0.25821376
124	0xbe86cef5	-0.2632977
125	0x3df9d2aa	0.12198384
126	0xbe54e421	-0.2079015
127	0xbea1de91	-0.31615117

gnn.convs.1.bias f4 [128]
0	0xbcbe35f3	-0.023219084
1	0xbd3da3ec	-0.046298906
2	0xbaa206d0	-0.001236165
3	0x3c40bb31	0.01176338
4	0xbb83f417	-0.0040269005
5	0xbccb34ad	-0.024805391
6	0xbb863126	-0.0040952144
7	0xbd050150	-0.032471955
8	0xbadd95fe	-0.0016905663
9	0x3b5a83ae	0.0033342647
10	0x3b0dc61f	0.0021632982
11	0xbcedc22b	-0.02902325
12	0x3c1df2f2	0.009640442
13	0xbbfe4b59	-0.007760447
14	0x3bb377f0	0.005476944
15	0x3ab533e9	0.0013824675
16	0x3c892e31	0.016745659
17	0xbcc1a1ec	-0.02363678
18	0xbc6b6d5a	-0.014369333
19	0xbc0a08cb	-0.008424948
20	0xbc00cb25	-0.007860933
21	0xba878076	-0.0010337967
22	0xbd576833	-0.052589606
23	0x3c588c28	0.01321701
24	0xbbdacbd1	-0.006677129
25	0xbc0d74f0	-0.008633837
26	0x3bfd2f41	0.0077265804
27	0x3bb9bfbc	0.0056686085
28	0xbb3fd318	-0.0029270109
29	0x3ba42781	0.005009592
30	0x3b1497d9	0.0022673516
31	0xbc1a8155	-0.009430249
32	0xbb37b75f	-0.0028032882
33	0xbd227da4	-0.0396706
34	0xbd06f3fb	-0.03294752
35	0x3b559018	0.0032587107
36	0xbb09ea1b	-0.0021044079
37	0xbb8b1b17	-0.0042451727
38	0xbbcea012	-0.006305703
39	0x3d2cb76d	0.042167116
40	0xbccef954	-0.025265373
41	0xbc3b9b56	-0.011450609
42	0x3b727471	0.0036995674
43	0xbca1cfb4	-0.01975236
44	0x3c8ac804	0.016941078
45	0x3d04fc68	0.032467276
46	0xbc9b8d6e	-0.018988337
47	0x3b078488	0.002067836
48	0xbd3236fe	-0.043509476
49	0x3cb75341	0.022378566
50	0xbb779f84	-0.0037784288
51	0xbc4d4856	-0.012529453
52	0xbbb8b577	-0.0056368667
53	0xbc807c57	-0.01568429
54	0xbcea165d	-0.028575117
55	0x3c9d524f	0.019204287
56	0x3bd2bdff	0.0064313407
57	0xbbf9220f	-0.007602937
58	0xbd15153a	-0.036397196
59	0xbc4b8975	-0.012422909
60	0xbb8c2096	-0.0042763455
61	0x3c1e5424	0.009663615
62	0xbd1e61af	-0.038667377
63	0xbccee8cb	-0.025257489
64	0x3c0fea6c	0.008783918
65	0xbca7cda9	-0.020483809
66	0x3bc8bc08	0.0061259307
67	0x3c31497d	0.010820744
68	0x3a2ee6d4	0.00066719693
69	0x3bf19692	0.0073726857
70	0x3b8d4184	0.0043107886
71	0xbd0a2a98	-0.033732027
72	0xbb8c9d4e	-0.004291213
73	0xbc245437	-0.010029844
74	0x3c523036	0.012828877
75	0xbd15a40c	-0.0365334
76	0xbc14c2a2	-0.009079607
77	0xbc3a94bf	-0.011388003
78	0xbb563f4a	-0.0032691532
79	0x3b7fa8eb	0.0039010595
80	0xbd348b69	-0.044078264
81	0xbaae1ffa	-0.0013284676
82	0xbc9528e1	-0.01820797
83	0xbcdd3b05	-0.027005682
84	0x3993fcb8	0.00028226315
85	0xbd0dda25	-0.034631867
86	0xbcea4f12	-0.028602157
87	0x3b3735e3	0.0027955703
88	0xbc458ac9	-0.012057015
89	0x3aa921dc	0.0012903768
90	0xbc8874e2	-0.016657297
91	0x3c83fd43	0.016111976
92	0xbd47078f	-0.048591193
93	0xbc680079	-0.014160269
94	0x3ba0212c	0.004886767
95	0xbc3a2139	-0.01136046
96	0xbcc8ac46	-0.024496209
97	0xbd30b1e4	-0.0431384
98	0x3af395dc	0.001858409
99	0xbc9bf315	-0.019036809
100	0xbc30e375	-0.0107964175
101	0xbced80fc	-0.028992169
102	0x3aa6296b	0.0012677138
103	0xba9f2a5f	-0.0012143365
104	0x3c83e826	0.016101908
105	0xbd001746	-0.031272195
106	0xbcb77384	-0.02239395
107	0xbcd20d9f	-0.02564126
108	0xbc8741c5	-0.016510854
109	0xbd0f271c	-0.034949407
110	0xbca0bbc3	-0.019620782
111	0x3c7c156f	0.01538597
112	0xbcad4110	-0.021149188
113	0x3c630150	0.013855293
114	0x3c8fe4d7	0.017565174
115	0xbcc4a725	-0.024005482
116	0xba073602	-0.0005157889
117	0xbbf9e7c8	-0.0076265074
118	0xbc9f2dcb	-0.019431015
119	0xbc53cd77	-0.012927405
120	0x3bd67532	0.0065447325
121	0x3b63cd47	0.0034759806
122	0xbc5bcb67	-0.013415194
123	0xbb3f1ab7	-0.002916021
124	0x3c07dd5a	0.00829252
125	0x3c0de5e1	0.008660764
126	0x3c90766d	0.017634595
127	0x3b2fd5c3	0.0026830293

gnn.convs.1.lin.weight f4 [128, 128]
0	0xbd95f6e1	-0.07322479
1	0xbcdcd221	-0.026955666
2	0x3e1a65d8	0.15077913
3	0x3c19d327	0.009388722
4	0x3dc55d16	0.09636895
5	0x3cad9d59	0.021193193
6	0x3cee48b2	0.029087398
7	0xbdf266f2	-0.118360415
8	0xbe444080	-0.1916523
9	0xbe1bd93a	-0.15219584
10	0x3dce98bd	0.10087726
11	0x3e1bd88e	0.15219328
12	0x3d73d766	0.05953159
13	0x3dac8954	0.08424631
14	0x3d08cdb5	0.033399303
15	0xbd1ec474	-0.03876157
16	0xbda55da8	-0.08074504
17	0x3dcbf863	0.099594854
18	0x3c037f81	0.008026005
19	0x3b22cd1e	0.0024841498
20	0xbc8319a2	-0.016003434
21	0xbe0f631f	-0.14002655
22	0x3c58ed12	0.013240116
23	0xbe125e40	-0.14293766
24	0xbe13b37c	-0.14423937
25	0x3c6de3cb	0.014519642
26	0x3ddfa0ae	0.10919319
27	0x3d8a1571	0.06742371
28	0x3dc1504d	0.09439144
29	0xbddf1db3	-0.108943366
30	0xbe0dd4dd	-0.13850732
31	0xbd3379ee	-0.043817453
32	0xbd485a04	-0.04891397
33	0xbd746b47	-0.05967262
34	0x3dc2ba5e	0.09508203
35	0x3d19098a	0.037362613
36	0xbea6cba2	-0.32577235
37	0xbd945042	-0.072418705
38	0xbd129b16	-0.035792433
39	0x3bce1be6	0.006289947
40	0xbe268389	-0.16261114
41	0xbc0e750e	-0.0086949
42	0xbc8693bb	-0.016427865
43	0xbe65254c	-0.22377509
44	0xbde20d84	-0.11037734
45	0xbc149762	-0.009069296
46	0xbdc695b8	-0.09696525
47	0x3dea5e00	0.1144371
48	0xbd672e89	-0.056440864
49	0xbb193dd6	-0.0023382804
50	0xbebe4525	-0.37162128
51	0xbba00068	-0.004882861
52	0xbcb47eff	-0.022033213
53	0x3e1b328e	0.15156004
54	0xbe5fcfe1	-0.21856643
55	0x3c5cde76	0.013480773
56	0x3d29fc03	0.041500103
57	0xbdb33dcd	-0.08752022
58	0x3e200793	0.1562789
59	0xbd008747	-0.03137901
60	0xbe236672	-0.15957049
61	0x3d8ffec3	0.07031014
62	0xbe6b3ff4	-0.22973615
63	0x3d82afe3	0.06381204
64	0x3e03901d	0.12847944
65	0x3e6a1e6a	0.22863165
66	0x3dbce76b	0.09223827
67	0xbcb66d59	-0.022268938
68	0x3d07be7c	0.033140644
69	0xbd95ddf6	-0.07317726
70	0x3d875670	0.066082835
71	0x3d98bf18	0.07458323
72	0xbdace9b6	-0.08443014
73	0x3e38c788	0.18044865
74	0x3d87cf67	0.06631356
75	0xbded7747	-0.11595016
76	0x3d307022	0.04307569
77	0xbbabb085	-0.0052395486
78	0xbe0b750a	-0.13618866
79	0xbcb9f59d	-0.022700125
80	0x3e047f8a	0.12939277
81	0x3d296d12	0.041363783
82	0x3dbef010	0.09323132
83	0x3daece82	0.08535482
84	0x3e1b862b	0.151879
85	0xbd6e70b7	-0.058212962
86	0xbe1cdcc1	-0.15318586
87	0xbd0eb69c	-0.03484212
88	0xbd38ecbb	-0.04514764
89	0xbdc0a24b	-0.09405955
90	0xbd625f87	-0.055266883
91	0x3dbea418	0.09308642
92	0xbd4a8664	-0.04944457
93	0x3e43994b	0.19101445
94	0x3ca5cb2f	0.020238487
95	0xbd734a34	-0.059396937
96	0xbddbcbdf	-0.10732245
97	0xbda85c6d	-0.08220754
98	0x3d2742fe	0.040835373
99	0xbda2781a	-0.07933064
100	0x3e768d45	0.24077328
101	0x3df6ca3b	0.12050291
102	0xbdba4542	-0.09095241
103	0xbd7f6fc6	-0.062362455
104	0x3df52b6a	0.11971171
105	0x3d83a5dc	0.064281195
106	0xbe05058f	-0.12990402
107	0xbcd95b98	-0.026532933
108	0xbe1946bc	-0.1496839
109	0x3cb17f45	0.021667132
110	0xbd6b5214	-0.057451323
111	0xbda78b32	-0.08180846
112	0xbbdb73d8	-0.0066971593
113	0xbe32ecfd	-0.17473216
114	0x3e38e965	0.18057783
115	0xbe730ebd	-0.23736091
116	0xbdd73f64	-0.10510138
117	0xbdb29da7	-0.08721476
118	0x3cb9e29b	0.022691062
119	0xbe0378ff	-0.12839125
120	0xbc35bfb2	-0.011093067
121	0xbe2e194f	-0.17001842
122	0xbdf50acc	-0.1196495
123	0xbd267d7e	-0.040647022
124	0xbdfc046d	-0.12305532
125	0xbc9da7dc	-0.01924508
126	0x3dbf0e50	0.09328902
127	0x3d58af63	0.052901637
128	0x3abd75b2	0.0014454632
129	0x3d874447	0.0660482
130	0xbe4f527c	-0.20246309
131	0xbe5f30ed	-0.21796007
132	0xbde4624c	-0.11151561
133	0x3e1c8b9e	0.15287635
134	0xbc89d65b	-0.016825845
135	0x3de342c0	0.11096716
136	0x3cf74e5f	0.030188737
137	0x3dabc50b	0.08387192
138	0xbdb085ba	-0.08619256
139	0xbdad0596	-0.08448331
140	0xbb9d97fa	-0.004809377
141	0x3df0929a	0.11746712
142	0x3d9ef6e0	0.077619314
143	0xbd191476	-0.03737303
144	0xbacf51ba	-0.0015817203
145	0x3e4f5fef	0.2025144
146	0xbd812563	-0.06305959
147	0x3d003554	0.031300858
148	0xbe93a1e6	-0.28834456
149	0xbd8b8b6b	-0.06813701
150	0xbe0be2c1	-0.13660719
151	0xbddb70ea	-0.10714896
152	0x3d446980	0.047952175
153	0xbdb54cba	-0.08852525
154	0x3dad546b	0.08463367
155	0xbd48ba78	-0.049005955
156	0x3d4f3956	0.05059179
157	0xbcc2e934	-0.02379284
158	0xbbd9cbf3	-0.006646627
159	0xbe35d556	-0.17757162
160	0xbde68ac6	-0.11256938
161	0xbe0c162d	-0.13680334
162	0x3d2a94d0	0.041645825
163	0xbca3ea18	-0.020009086
164	0xbd754cb9	-0.05988762
165	0x3dd30af7	0.10304826
166	0x3c017c45	0.007903163
167	0xbd2c6464	-0.042087927
168	0x3d95ca25	0.07313947
169	0xbd1876af	-0.03722256
170	0xbcaa1d61	-0.020765962
171	0xbe151777	-0.14559732
172	0xbe5bf06b	-0.21478431
173	0xbd841f68	-0.06451303
174	0xbdda58ca	-0.106614664
175	0xbc3c1c4a	-0.011481354
176	0xbe18fac0	-0.14939404
177	0x3dcd6b36	0.100302145
178	0xbe9453b5	-0.28970113
179	0xbdefd773	-0.117110156
180	0xbe93dbf2	-0.28878742
181	0xbe2a3c64	-0.166246
182	0xbdac443a	-0.08411451
183	0xbd8a8ac6	-0.0676475
184	0x3e53bba5	0.2067705
185	0xbe6d1367	-0.23151933
186	0xbe298c25	-0.16557367
187	0xbe7df00d	-0.24798603
188	0xbe18d70e	-0.14925787
189	0xbb31c953	-0.0027128055
190	0xbcaa4b68	-0.02078791
191	0xbdaa3daf	-0.083125465
192	0x3c7ac2b4	0.01530521
193	0xbead0f21	-0.33800605
194	0x3a88b170	0.0010428857
195	0xbe151a48	-0.14560807
196	0xbd06ce19	-0.032911394
197	0x3ea7a51e	0.32743162
198	0xbdceb412	-0.100929394
199	0x3d0fd13d	0.035111655
200	0xbeb404ce	-0.35159916
201	0xbe63e092	-0.22253636
202	0xbd3cd56f	-0.046101984
203	0xbd609a75	-0.0548348
204	0xbdeebb59	-0.116568275
205	0xbe675191	-0.22589709
206	0x3dbae1bd	0.091250874
207	0xbe7685c8	-0.24074471
208	0xbd6306cc	-0.055426404
209	0xbd311798	-0.04323539
210	0xbbc78480	-0.0060887933
211	0xbea3612a	-0.31910068
212	0x3e2b7b73	0.16746311
213	0x3e83a0ea	0.25708705
214	0xbe061a87	-0.13096057
215	0xbe0dc285	-0.13843735
216	0x3e006511	0.12538554
217	0xbe327050	-0.17425656
218	0xbdf73c8b	-0.120720945
219	0x3e44ea0d	0.19229908
220	0xbd78750a	-0.060658492
221	0xbed925f4	-0.42411768
222	0xbc34cc0c	-0.011034977
223	0xbda8f266	-0.08249359
224	0xbcac32c6	-0.021020304
225	0x3e752c64	0.23942715
226	0x3deb3526	0.11484747
227	0xbe1bb22a	-0.15204683
228	0x3e906469	0.28201607
229	0xbdb3f5f5	-0.08787147
230	0xbc762016	-0.015022298
231	0x3cce9642	0.025218133
232	0xbd09acd4	-0.033612087
233	0xbd9b3a1b	-0.07579442
234	0xbe291ad2	-0.16514137
235	0x3e1b7224	0.1518026
236	0x3e499889	0.19687094
237	0xbe9a0a0b	-0.30085787
238	0x3e96fcbd	0.294897
239	0xbc4ccfe8	-0.012500741
240	0xbe800b59	-0.25008658
241	0xbda352b2	-0.07974757
242	0x3c685502	0.014180424
243	0x3db61598	0.088908374
244	0xbe762a20	-0.24039507
245	0x3d1ab832	0.03777332
246	0xbdd69a13	-0.10478606
247	0xbea3ce24	-0.3199321
248	0xbea2596c	-0.31708848
249	0xbe26f43e	-0.16304109
250	0x3d49d5a4	0.04927601
251	0xbdd3f9c8	-0.10350376
252	0xbde0b4d5	-0.10971991
253	0xbdef7391	-0.116919644
254	0x3d08df53	0.033416104
255	0xbcb8bab5	-0.022549966

gnn.convs.2.att_src f4 [1, 4, 32]
0	0xbefb5616	-0.49089116
1	0x3efcb17a	0.49354154
2	0xbedd8d07	-0.43271658
3	0xbe18cb70	-0.14921355
4	0xbe389563	-0.18025737
5	0x3e374004	0.17895514
6	0xbea181f4	-0.3154446
7	0x3e0ba23c	0.13636106
8	0x3f3481d9	0.7051063
9	0xbf11b8c7	-0.5692257
10	0xbe100f64	-0.14068371
11	0x3eaad73b	0.33367333
12	0x3e9dee6a	0.30845958
13	0x3daa9523	0.08329227
14	0x3c8427e6	0.016132306
15	0xbea07ce5	-0.31345287
16	0xbdcb3080	-0.0992136
17	0x3db497a3	0.08817985
18	0x3e1f1012	0.15533474
19	0xbf1d2bab	-0.6139476
20	0xbecd4f0e	-0.40099376
21	0xbf35178c	-0.70739055
22	0xbea2cf29	-0.31798676
23	0xbbb6942a	-0.0055718618
24	0xbf39f4bd	-0.72639066
25	0x3dd06af5	0.101766504
26	0x3e32ddb6	0.17467389
27	0x3dd02a7b	0.101643525
28	0x3df35e21	0.11883188
29	0x3ead2588	0.33817697
30	0xbf089518	-0.533525
31	0x3f1cc90d	0.6124428
32	0xbd43efa9	-0.04783598
33	0x3d97b919	0.074083515
34	0x3efe7603	0.4969941
35	0x3e5875b3	0.21138649
36	0xbf0b1a58	-0.5433707
37	0x3eaab72e	0.3334288
38	0xbf26d5ff	-0.6517028
39	0x3f0e98b4	0.55701756
40	0x3e85a713	0.2610403
41	0x3e89c261	0.26906112
42	0xbe005eb1	-0.12536122
43	0x3f0fde06	0.56198156
44	0x3ed8a3b9	0.4231241
45	0x3f19f12d	0.6013363
46	0x3e6659d3	0.22495203
47	0xbd269cd7	-0.040676918
48	0xbedc93dd	-0.4308156
49	0xbd0f6378	-0.03500697
50	0xbe658320	-0.22413301
51	0xbe21904f	-0.15777706
52	0x3e6d2dcd	0.23162003
53	0xbefc68d4	-0.49298728
54	0xbe928f78	-0.28625083
55	0x3ebcbfed	0.36865178
56	0xbeccd882	-0.40008932
57	0xbcc7e73b	-0.024402251
58	0x3f12fd8a	0.5741812
59	0xbf1176ac	-0.56821704
60	0xbee2c3fd	-0.44290152
61	0xbf11c3bd	-0.569393
62	0x3e5cef9d	0.2157578
63	0xbe47e784	-0.1952191
64	0xbeebdc83	-0.46066675
65	0x3ef236a2	0.47307307
66	0xbe99db38	-0.30050063
67	0xbe9465b2	-0.28983837
68	0x3ea6262e	0.32451004
69	0x3d7f7ada	0.06237302
70	0x3e8777b7	0.26458523
71	0xbed473ec	-0.4149469
72	0xbefb1648	-0.49040437
73	0x3eae9832	0.3410049
74	0x3f2f6eb2	0.6852828
75	0xbf19047a	-0.59772456
76	0x3e26f454	0.16304141
77	0xbebfa7cb	-0.37432703
78	0xbf0092a5	-0.5022376
79	0xbf21d9b6	-0.63222826
80	0xbf0b5267	-0.5442261
81	0x3b691817	0.0035567337
82	0xbe6ddba2	-0.23228315
83	0x3f42775e	0.7596339
84	0x3f22338c	0.63359904
85	0x3eb57ffc	0.35449207
86	0xbe87fdba	-0.26560766
87	0xbe37de5c	-0.17955917
88	0x3f1a1294	0.601846
89	0xbf1a3261	-0.6023312
90	0x3b8d8859	0.0043192324
91	0xbf1538aa	-0.5828959
92	0x3f4aa0a0	0.79151344
93	0x3ddc16d6	0.10746543
94	0xbe48e3de	-0.19618174
95	0x3f135945	0.5755809
96	0x3c517c23	0.012785944
97	0xbd98f72a	-0.07469018
98	0xbe491b96	-0.1963943
99	0xbbc27039	-0.005933788
100	0x3ed4d3e3	0.41567907
101	0x3edc2eaa	0.43004352
102	0xbec5f4db	-0.38663372
103	0xbea7850a	-0.32718688
104	0x3ece3603	0.40275583
105	0x3e926ca4	0.2859851
106	0xbd814da7	-0.06313639
107	0xbec86a08	-0.39143395
108	0x3f024573	0.5088722
109	0xbe81889b	-0.25299534
110	0x3ef47a07	0.4774935
111	0xbeb1d6ad	-0.34734097
112	0xbee124ab	-0.43973288
113	0xbeaada30	-0.3336959
114	0x3dedd801	0.11613465
115	0x3f06357e	0.5242537
116	0xbe64ee8e	-0.22356626
117	0xbe4b6995	-0.19864495
118	0x3d5dc674	0.054144338
119	0x3f28479c	0.6573427
120	0xbeb11a18	-0.3459022
121	0x3cd10afb	0.025517931
122	0xbe8dbd81	-0.27683643
123	0x3e8b2e01	0.27183536
124	0xbe1eb44e	-0.15498468
125	0x3e929529	0.28629425
126	0xbdb3723a	-0.08762021
127	0xbe4c88fb	-0.19974129

gnn.convs.2.att_dst f4 [1, 4, 32]
0	0x3e046e65	0.12932737
1	0x3e0336af	0.12813829
2	0xbd38dac1	-0.045130495
3	0xbeaa4938	-0.33258986
4	0xbd8faff9	-0.07015986
5	0xbd2fda1a	-0.042932607
6	0xbf0613b9	-0.52373844
7	0xbc7a8680	-0.015290856
8	0xbe5040a6	-0.20337161
9	0xbccddeb2	-0.025130603
10	0x3e2e9244	0.17047983
11	0xbe2a243d	-0.16615386
12	0x3c9d2555	0.01918284
13	0x3e1b302d	0.15155096
14	0xbde02211	-0.10943998
15	0x3dd5818e	0.10425101
16	0x3e6c9cea	0.23106733
17	0x3e5a32ea	0.21308485
18	0x3d07d7ce	0.03316479
19	0x3e6fdfe4	0.23425251
20	0x3cbec747	0.023288382
21	0x3cd16208	0.02555944
22	0xbd9d60a7	-0.076844506
23	0x3dbd4b10	0.09242833
24	0xbe92ebbf	-0.28695485
25	0xbf1bf92b	-0.60927075
26	0x3be8d9fc	0.007106064
27	0x3e5dc9e3	0.21659045
28	0xbe1639d1	-0.14670493
29	0xbc3db2ab	-0.011578242
30	0xbdd31a74	-0.1030778
31	0x3eb0d020	0.34533787
32	0x3e647bb2	0.22312811
33	0xbea8e024	-0.32983506
34	0xbeaac339	-0.33352068
35	0xbe1a1f5f	-0.1505103
36	0xbe0dc177	-0.13843332
37	0xbe2ecc88	-0.1707021
38	0x3de27fe6	0.11059551
39	0x3ec4a4eb	0.38407072
40	0x3eb1fc79	0.34762934
41	0x3d516a63	0.05112685
42	0x3baa9d71	0.0052067568
43	0xbda1e997	-0.07905882
44	0xbf10e3c3	-0.56597537
45	0xbd678acc	-0.05652885
46	0xbe975c97	-0.29562828
47	0x3ee25581	0.4420586
48	0x3e8581c0	0.26075554
49	0xbc1e0559	-0.00964483
50	0xbf06d84c	-0.5267379
51	0x3e958b2e	0.29207748
52	0xbd816d34	-0.06319657
53	0xbc3bac0a	-0.0114545915
54	0x3ef469e7	0.47737047
55	0xbdb16cde	-0.08663343
56	0xbe99807a	-0.29980832
57	0x3e37018f	0.17871688
58	0xbe48dad2	-0.19614723
59	0xbdb59307	-0.08865934
60	0x3e3f323a	0.18671504
61	0xbd47b824	-0.048759595
62	0x3dd7b864	0.105332166
63	0xbe84a9e9	-0.2591088
64	0xbe8787b2	-0.26470715
65	0xbebdf38d	-0.37099877
66	0x3aa849ae	0.0012839341
67	0x3ec67454	0.38760626
68	0x3e05f261	0.13080741
69	0xbe4bbee6	-0.1989704
70	0x3ef0c5f4	0.47026026
71	0x3efedb5e	0.4977674
72	0xbd442fb3	-0.047897052
73	0xbe161eda	-0.14660206
74	0xbc77cf89	-0.015125164
75	0x3cb58ab3	0.022160864
76	0xbe8436a0	-0.25822926
77	0x3eef3ab8	0.46724486
78	0x3e900d97	0.28135368
79	0xbeb17f64	-0.34667504
80	0xbe0f23ba	-0.13978472
81	0x3e3bd2be	0.1834211
82	0xbd846649	-0.06464822
83	0xbf0e1afc	-0.55509925
84	0xbe32ee15	-0.17473634
85	0x3e01a885	0.12661941
86	0x3df5b91f	0.119982
87	0xbeeccea8	-0.46251416
88	0xbdc95994	-0.09831539
89	0xbee2f560	-0.4432783
90	0xbe7f7cf6	-0.24950013
91	0xbe382344	-0.17982203
92	0xbe477e56	-0.19481787
93	0xbd95d362	-0.07315709
94	0xbe9f440a	-0.31106597
95	0xbe89dd53	-0.2692667
96	0x3e689638	0.22713554
97	0xbed37295	-0.41298357
98	0xbd6ef7d6	-0.058341824
99	0xbe3117ba	-0.17294207
100	0x3e0df5cb	0.13863294
101	0x3e78198c	0.24228495
102	0x3ca18ba8	0.019719914
103	0x3ea8ec94	0.32992995
104	0x3f01feeb	0.507796
105	0xbd019724	-0.03163828
106	0xbc40324a	-0.01173074
107	0x3dd4078b	0.10353001
108	0xbe5b9c2a	-0.2144629
109	0x3ea8804d	0.32910386
110	0xbeb97c23	-0.3622752
111	0xbd6b6769	-0.057471666
112	0x3ecd3628	0.4008038
113	0x3eda110b	0.42591128
114	0x3e7a97d9	0.24471988
115	0x3e85b7a4	0.2611667
116	0x3e0fd6b7	0.14046751
117	0xbe842185	-0.25806823
118	0x3ecdbd04	0.4018327
119	0x3d396afc	0.045268044
120	0xbe0714e9	-0.1319157
121	0x3e68fd03	0.22752766
122	0x3eaafa6a	0.33394176
123	0x3dfe7da0	0.12426305
124	0xbe7d04ff	-0.24708937
125	0xbdb2c0fb	-0.08728214
126	0x3dc2fe23	0.09521129
127	0x3e85c4a9	0.26126602

gnn.convs.2.bias f4 [128]
0	0x3bb2f05f	0.0054607834
1	0xbbd01e02	-0.0063512335
2	0x3cca2a99	0.024678515
3	0xbaf85734	-0.0018946887
4	0xbbb272c5	-0.0054458105
5	0x3aa85e32	0.0012845455
6	0xbc9485e4	-0.01813025
7	0xbd10928b	-0.035296004
8	0x3bc96ea0	0.0061472207
9	0xbb231813	-0.0024886176
10	0xbcc8fd07	-0.024534715
11	0x3c4d136f	0.01251684
12	0xbd55d7d8	-0.052207798
13	0xbcc177a5	-0.023616621
14	0xbd3952b6	-0.045244895
15	0xbc690026	-0.014221227
16	0x3c4c151b	0.012456204
17	0xbd56eb5b	-0.052470546
18	0x3c88002c	0.016601644
19	0xb93ecba1	-0.0001819567
20	0xbd18aae9	-0.037272368
21	0xbbee53ad	-0.0072731585
22	0xbbec1db7	-0.0072056907
23	0x3cd46e12	0.025931392
24	0xbb4dad24	-0.0031383717
25	0xbcd88754	-0.026431717
26	0xbcc57f65	-0.024108598
27	0x3c754dc0	0.01497215
28	0xbc252e36	-0.010081818
29	0x3c1ae725	0.009454523
30	0xbd49e24b	-0.049288075
31	0xbcf21453	-0.029550707
32	0x3cc47366	0.023980808
33	0xbced8302	-0.028993133
34	0x3d11f178	0.035630673
35	0x3c982a14	0.018574752
36	0xbc1fd414	-0.009755153
37	0xbd2b0796	-0.04175528
38	0xbd670c42	-0.056408174
39	0x3c80edbd	0.015738362
40	0x3b23efbc	0.002501472
41	0x3c5297b2	0.01285355
42	0x3c9f8c31	0.019476028
43	0x3c299265	0.010349845
44	0xbd9dd988	-0.077075064
45	0xbb723064	-0.0036955113
46	0xbb14c305	-0.0022699249
47	0x3b111972	0.002214041
48	0x3985f6ba	0.00025551562
49	0xbc01d74d	-0.007924867
50	0xbc02c969	-0.00798259
51	0x3d55b280	0.052172184
52	0xbb6de5c0	-0.0036300272
53	0xbcba92e8	-0.022775128
54	0xbb95051e	-0.004547729
55	0x3c814270	0.01577875
56	0xbca1f861	-0.019771757
57	0xbc74d4e3	-0.014943334
58	0x3ba3648f	0.0049863528
59	0xbb5609c2	-0.0032659625
60	0xbd0652e6	-0.0327939
61	0xbbb24c56	-0.005441229
62	0xbc25a5ab	-0.010110299
63	0x3c8c769c	0.017146401
64	0x3aae51d1	0.001329953
65	0x3c7a2763	0.01526818
66	0x3bd09305	0.0063651823
67	0xbc118fbe	-0.008884368
68	0x3c765124	0.015033994
69	0xbd02c768	-0.03192845
70	0x3bacb6c9	0.005270813
71	0xbc2f5acb	-0.010702799
72	0xbbe2aea2	-0.0069177905
73	0xbc86452a	-0.016390402
74	0xbb68662b	-0.0035461287
75	0xbd088acd	-0.033335496
76	0x3c0ad2d2	0.008473115
77	0x3b5af7e5	0.0033411917
78	0xbc346eee	-0.011012776
79	0xbca2e040	-0.019882321
80	0xbd5f35d6	-0.0544947
81	0x3c5ff880	0.013670087
82	0xbd38843e	-0.04504799
83	0xbdc60b1f	-0.0967009
84	0x3c13a7ca	0.009012172
85	0xbd19d04c	-0.037552163
86	0x3c87f427	0.016595913
87	0xbac562cc	-0.0015059351
88	0x3ce6225e	0.02809256
89	0xbd385605	-0.04500391
90	0xbcc73509	-0.024317281
91	0xbd27e6e3	-0.040991675
92	0xbc8e551f	-0.017374573
93	0xbd3a8531	-0.045537177
94	0x3b8d73d6	0.0043167872
95	0x3b828230	0.0039828047
96	0xbcf13472	-0.029443953
97	0xbb4188fd	-0.0029531114
98	0xbc207ec1	-0.0097958455
99	0xbccb0075	-0.024780491
100	0xbc814c96	-0.01578359
101	0xbc6c361f	-0.0144172
102	0xbd01a51d	-0.031651605
103	0x39cb5264	0.00038780563
104	0x3c9d0717	0.01916842
105	0x3c3c6493	0.011498588
106	0x3c61104c	0.013736796
107	0x3cc35c4f	0.023847727
108	0xbca47580	-0.02007556
109	0xbcbe7c7d	-0.02325272
110	0xbb950ca3	-0.0045486256
111	0x3c876d16	0.016531508
112	0xbb9bfb94	-0.004760215
113	0x3af5ce85	0.0018753564
114	0xbc2bf3c3	-0.010495129
115	0xbd4fd5d2	-0.050741024
116	0xbc40b1a1	-0.0117611
117	0x3cf31e80	0.02967763
118	0xbc18fc7a	-0.009337539
119	0xbca13a81	-0.019681217
120	0xbc19d590	-0.009389296
121	0x3cf115d7	0.02942936
122	0xbc5c1428	-0.01343254
123	0x3c1deb13	0.009638566
124	0x3c739c47	0.014868802
125	0xbb51f46d	-0.0032036558
126	0xbca969df	-0.020680366
127	0xbc5d6a59	-0.013514125
