trained_model_GCN_cartesian_knn10_unit_sphere_400hybrid_combined.pth (torch, 553780 bytes, 7 tensors)

gnn.convs.0.bias f4 [512]
0	0xbba2b526	-0.004965442
1	0x3cce8a18	0.025212333
2	0x3a75d648	0.00093779387
3	0x3d1435eb	0.036184233
4	0x3ab2b144	0.0013633152
5	0x3b478d34	0.0030449154
6	0xbc1531c1	-0.009106101
7	0xbcfde108	-0.030991092
8	0x00000000	0.0
9	0x3aa1cbfc	0.0012344117
10	0xbbefccc8	-0.007318113
11	0xbc529922	-0.0128538925
12	0xb9d2d71e	-0.00040214596
13	0xbcd9ce2b	-0.026587566
14	0x00000000	0.0
15	0x3bcdb2a1	0.0062773977
16	0x00000000	0.0
17	0x00000000	0.0
18	0xbb48ca77	-0.0030638257
19	0xbaee0f35	-0.0018162491
20	0xbd1215e6	-0.035665415
21	0x3b6ba95c	0.00359591
22	0x3bef1734	0.007296467
23	0xbce4b398	-0.027917668
24	0xbce2492a	-0.027622778
25	0x3ad1e8ae	0.0016014779
26	0x3c3a3a63	0.01136646
27	0x3af2a399	0.0018511891
28	0xbacd6654	-0.0015670755
29	0x3d0a3f69	0.03375188
30	0xba8347f4	-0.001001595
31	0x3b95c7ee	0.0045709526
32	0xb95c7d6e	-0.00021027561
33	0xbc78485e	-0.015153972
34	0xba556cea	-0.00081415346
35	0x3b768581	0.0037616196
36	0xbb76d40a	-0.0037663006
37	0x00000000	0.0
38	0xbb992bcf	-0.004674412
39	0xbb348edd	-0.0027550973
40	0xbbe69b75	-0.007037575
41	0x3acd581f	0.0015666521
42	0xbb95d40f	-0.0045723985
43	0xbc81e360	-0.015855491
44	0xbc87abdd	-0.016561443
45	0x3c0b3713	0.008497017
46	0xb965a14f	-0.00021899234
47	0x00000000	0.0
48	0x3ae30eff	0.0017323195
49	0x39c8bf5c	0.00038289547
50	0x3b8b0e3c	0.00424364
51	0xbc7080f4	-0.014679182
52	0xb93906a0	-0.00017645443
53	0xbce6c47d	-0.028169865
54	0x3bd9b21b	0.0066435463
55	0x3c60ceac	0.013721149
56	0xbae112fa	-0.0017171793
57	0xba6ec9cc	-0.00091090496
58	0x3c1eeb1c	0.009699609
59	0x3cacf2e4	0.021111913
60	0xbaa8767c	-0.0012852694
61	0xbcc9b3e2	-0.024621908
62	0x00000000	0.0
63	0x3beae240	0.0071680844
64	0xbc8e7303	-0.017388826
65	0x3ae5cd50	0.0017532501
66	0x3c3b2105	0.011421447
67	0x3b2bf839	0.0026240482
68	0xb9855e8b	-0.00025438177
69	0x00000000	0.0
70	0xba45cb29	-0.0007545227
71	0x3c6895c0	0.014195859
72	0xbad59bf9	-0.0016297094
73	0xbd0098fc	-0.031395897
74	0x3c956ea4	0.018241234
75	0xbc22d75b	-0.00993904
76	0x3ad9d0cf	0.0016618016
77	0x3aacdd4e	0.0013188513
78	0x3b9f26d1	0.004856922
79	0xbc8a12bb	-0.016854635
80	0x3bb89de3	0.005634056
81	0xbd1114e9	-0.035420332
82	0xbca072f7	-0.01958607
83	0x00000000	0.0
84	0xb98ebc7a	-0.00027224777
85	0xb9d050d5	-0.00039733076
86	0x3c88fb3a	0.016721357
87	0x3b8e5e15	0.0043447115
88	0x00000000	0.0
89	0x391afe2d	0.00014781272
90	0xbc7a617d	-0.015282032
91	0xbac56ef3	-0.0015062973
92	0x3b85f9ad	0.0040886016
93	0xbc469280	-0.012119889
94	0x3ae21fa8	0.0017251866
95	0x3c4bff9b	0.012451078
96	0x00000000	0.0
97	0xbc50181c	-0.012701061
98	0xbb95f959	-0.0045768437
99	0xb9584cbf	-0.00020627955
100	0xbd089f8b	-0.033355277
101	0x00000000	0.0
102	0xbc328ccf	-0.010897829
103	0xbcf0d035	-0.029396156
104	0xbb5ccaa1	-0.0033690112
105	0xbb33b9d0	-0.0027423985
106	0x3af9e75d	0.0019066144
107	0x3a956268	0.0011397125
108	0xbcc176b1	-0.023616167
109	0x3a7cd916	0.00096453854
110	0xbb8ce732	-0.0043000216
111	0xbd024060	-0.031799674
112	0xbc398f0e	-0.011325611
113	0x3c2de355	0.010613282
114	0xbca8c1ca	-0.020600218
115	0xb8d9b43a	-0.00010380936
116	0xbab477d5	-0.0013768623
117	0xbbb05077	-0.005380686
118	0xbcddb734	-0.027064897
119	0x3b20870d	0.002449456
120	0xbca95475	-0.020670155
121	0x3c2c54a2	0.010518225
122	0xb9da45b8	-0.00041632145
123	0x3cb17317	0.021661324
124	0xbb34b8d9	-0.0027575998
125	0xbd2c5208	-0.04207042
126	0x3c237d80	0.009978652
127	0xba598a49	-0.0008298499
128	0xbcdde21d	-0.027085358
129	0xbcd5a464	-0.026079364
130	0xbcfe2011	-0.03102115
131	0x3a878d4c	0.0010341792
132	0xba658d8c	-0.0008756749
133	0x3c12984d	0.008947444
134	0xbd175719	-0.036948297
135	0xbb98a9e8	-0.0046589263
136	0x3b2f7956	0.0026775203
137	0x3c695a65	0.014242743
138	0x3bcd9216	0.0062735183
139	0xbb21ebb5	-0.0024707143
140	0xbce88810	-0.028385192
141	0x3b800b06	0.003907564
142	0xbccc3e54	-0.024932064
143	0xbcf13dfb	-0.0294485
144	0x3af7e80f	0.0018913763
145	0x3cdbf3d3	0.026849663
146	0xbc84c7ef	-0.016208617
147	0xbacd5ec0	-0.0015668496
148	0xbcf98c8b	-0.030462524
149	0xbac6f190	-0.0015178192
150	0xbc903223	-0.017602032
151	0xbc3ff9f5	-0.011717309
152	0xbb50de94	-0.0031870948
153	0xbceb0dbb	-0.02869307
154	0xbce83eec	-0.028350316
155	0x3c8d35bc	0.017237537
156	0x3b5d32dc	0.0033752238
157	0xbb34929d	-0.0027553209
158	0xbd043ba8	-0.032283455
159	0xbc0fbe56	-0.008773407
160	0xbb88e688	-0.004177872
161	0xba9a6aab	-0.0011781057
162	0xbcf40f14	-0.029792346
163	0xbcc92518	-0.02455382
164	0xbc936dbd	-0.017996663
165	0xbcba7cd5	-0.022764603
166	0x3b6401ab	0.0034791033
167	0xbcb9907a	-0.0226519
168	0xbcdeaafd	-0.027181143
169	0xbbd28d9c	-0.0064255726
170	0x3bc6bd45	0.006065043
171	0x00000000	0.0
172	0xbc25da86	-0.010122901
173	0x3c279e45	0.0102306055
174	0xbd063525	-0.032765526
175	0xbc61bc8d	-0.013777864
176	0xbba65416	-0.005075942
177	0x3ae4129a	0.0017400563
178	0xbcad6c54	-0.021169819
179	0xbbea52aa	-0.0071509676
180	0xbafe3386	-0.0019394017
181	0xbca348d6	-0.019932192
182	0xbd04d816	-0.032432638
183	0xb9d1be90	-0.00040005567
184	0x3ca280a8	0.019836739
185	0xbcb9343b	-0.022607913
186	0xba882044	-0.0010385592
187	0xba4cb50c	-0.00078089605
188	0x3bf55816	0.0074873073
189	0x00000000	0.0
190	0x3a830085	0.0009994662
191	0xbaf0e164	-0.0018377719
192	0xb9732837	-0.00023189267
193	0x00000000	0.0
194	0x3a2a9992	0.0006507869
195	0x3c22e345	0.009941881
196	0xbc098857	-0.008394322
197	0xbae8a60b	-0.001774968
198	0x00000000	0.0
199	0x3c202751	0.009774999
200	0x00000000	0.0
201	0x3c9a42a9	0.018830614
202	0x388c971c	6.7038665e-05
203	0x3722e6da	9.709702e-06
204	0xbc4208d1	-0.011842922
205	0xba76d885	-0.0009416419
206	0xbb378980	-0.002800554
207	0x38346983	4.301361e-05
208	0xbccf16cf	-0.02527943
209	0x00000000	0.0
210	0xbc0d6b4f	-0.008631541
211	0xbc784b88	-0.015154727
212	0x3ba32bc4	0.0049795825
213	0xbb959924	-0.004565375
214	0xbcd1e230	-0.02562055
215	0xba3b39ec	-0.0007142115
216	0x3c7b7686	0.015348082
217	0x3d1e60e4	0.03866662
218	0xbcfbbfaf	-0.03073105
219	0xbc889c0e	-0.016675975
220	0xbb0560b4	-0.002035183
221	0x3c7f7ec5	0.015594189
222	0x3b8d843e	0.004318743
223	0xbc75657c	-0.014977809
224	0x3b95e1ab	0.004574021
225	0x3c284e74	0.010272611
226	0xbccc52e4	-0.02494187
227	0xbc88fa70	-0.01672098
228	0xbb5701d0	-0.0032807477
229	0xbd03d628	-0.032186657
230	0xbb962b82	-0.0045828233
231	0xbb16140e	-0.0022900137
232	0xbc8e3d5a	-0.01736324
233	0x00000000	0.0
234	0xbba0fb1d	-0.0049127475
235	0xbb9de898	-0.004818987
236	0xbaa6463a	-0.0012685724
237	0x00000000	0.0
238	0xbc867ee5	-0.01641793
239	0xbcac80b4	-0.021057464
240	0x38907a1c	6.8892e-05
241	0xbcf70f39	-0.030158626
242	0xbabba822	-0.0014317075
243	0x3c175e55	0.009238799
244	0x3bc3bf81	0.005973757
245	0xbb04f047	-0.0020284818
246	0x3c3fc637	0.011704973
247	0xbacd0c92	-0.0015644005
248	0x00000000	0.0
249	0xbb688656	-0.003548046
250	0xbbd2ada2	-0.00642939
251	0xbcb77ab8	-0.022397384
252	0x3a945e27	0.0011319563
253	0x00000000	0.0
254	0xbb9f21f9	-0.004856345
255	0xbb85247d	-0.0040631876

gnn.convs.0.lin.weight f4 [512, 9]
0	0xbc8d84f9	-0.01727532
1	0x3d86af96	0.06576459
2	0x3d1f59eb	0.03890411
3	0x3dc1ba55	0.09459368
4	0x3d9e08c0	0.07716513
5	0x3d5e6406	0.05429461
6	0xbd881f7f	-0.066466324
7	0x3dc42223	0.095768236
8	0xbd5d3225	-0.0540029
9	0xbd5cd2d5	-0.053912003
10	0xbd340be7	-0.043956663
11	0x3dafa40c	0.08576211
12	0xbe2242a7	-0.15845738
13	0xbc48482f	-0.012224241
14	0xbce7cc3d	-0.02829563
15	0xbd977e55	-0.07397143
16	0xbd20ef1c	-0.039290532
17	0x3de5a5db	0.11213275
18	0xbd9d4a7d	-0.07680223
19	0xbd069e64	-0.032865897
20	0x3cf7e0d4	0.030258574
21	0xbc88a104	-0.01667834
22	0x3dd9df67	0.10638314
23	0xbdd08aa8	-0.101826966
24	0x3d3b28a1	0.045693044
25	0x3da20335	0.07910768
26	0xbdb15629	-0.08659012
27	0x3e0b67cc	0.13613814
28	0x3e8f7169	0.28016213
29	0xbd878e62	-0.06618954
30	0xbca757eb	-0.020427665
31	0x3d948608	0.07252127
32	0x3d505ce8	0.050869852
33	0x3d91401c	0.07092306
34	0x3bb5632d	0.0055355043
35	0x3dcb78b8	0.09935135
36	0x3c4d4b3a	0.012530142
37	0xbd0866bb	-0.033301096
38	0xbda22056	-0.07916324
39	0x3c0e5094	0.0086862035
40	0xbdcf00f7	-0.10107606
41	0x3dc17028	0.0944522
42	0x3dbaf553	0.09128823
43	0xbdb7a1ee	-0.089664325
44	0x3d05f9fa	0.0327091
45	0x3d270d99	0.040784452
46	0xbdc8191a	-0.09770413
47	0x3d64d4be	0.05586695
48	0x3c661dab	0.014045159
49	0xbce8f6ee	-0.028438058
50	0x3d37beda	0.044859745
51	0x3d7d9bc0	0.061916113
52	0xbdcc6c16	-0.09981553
53	0x3c7f1491	0.015568868
54	0xbe268ca2	-0.16264585
55	0x3c9d1abb	0.019177785
56	0xbda547ab	-0.0807031
57	0x3cf969c0	0.030445933
58	0xbd832a6c	-0.06404576
59	0xbce4f3a1	-0.027948203
60	0xbc0723c2	-0.008248271
61	0xbdb4678c	-0.088088125
62	0x3dadd352	0.08487572
63	0xbe5dee36	-0.21672902
64	0xbe744f8e	-0.23858473
65	0xbdc5b1d7	-0.09653061
66	0x3e0a6bfb	0.13517754
67	0xbc0303ee	-0.007996542
68	0xbe27ae65	-0.1637512
69	0xbd17ab95	-0.037028868
70	0x3c3e3abb	0.011610682
71	0x3d5c2b81	0.053752426
72	0xbd2ae22d	-0.041719604
73	0xbc1cbbef	-0.009566291
74	0xbdb3ed7a	-0.087855294
75	0xbd07d884	-0.03316547
76	0x3cb37ed9	0.021911072
77	0xbbcadcd5	-0.006190876
78	0x3dc41b64	0.09575537
79	0xbd76f37c	-0.0602908
80	0xbd83181c	-0.06401083
81	0x3d184bd9	0.03718171
82	0x3d259498	0.040424913
83	0x3da952a2	0.08267714
84	0xbc6e582b	-0.014547388
85	0x3b76b93a	0.0037647025
86	0xbc236f16	-0.009975215
87	0x3dd19c95	0.10234944
88	0x3c6a9c16	0.01431944
89	0xbc546468	-0.012963392
90	0xbdb80e36	-0.089870855
91	0xbd8c2fef	-0.0684508
92	0x3d0cd493	0.034382414
93	0xbd3ebefb	-0.046568852
94	0x3cecf0ce	0.028923418
95	0xbae65548	-0.0017573023
96	0xbd3b4662	-0.04572142
97	0xbdb8aae0	-0.09016967
98	0x3d211002	0.039321907
99	0xbdb5b7e4	-0.08872965
100	0xbe74dbeb	-0.23912017
101	0xbd02b608	-0.03191188
102	0x3e1c68e7	0.15274392
103	0x3c656284	0.014000539
104	0xbd027707	-0.031851795
105	0x3ca6b0ed	0.020348037
106	0xbd432b7f	-0.047648903
107	0x3dca7f64	0.09887579
108	0xbcc8e19e	-0.024521645
109	0xbc441597	-0.011968038
110	0x3b155417	0.0022785717
111	0x3d8e9447	0.069618754
112	0xbc24a6fe	-0.01004958
113	0xbdc14034	-0.09436074
114	0x3d10c85a	0.03534732
115	0x3c7f714b	0.015590976
116	0xbd5bcfdc	-0.053665027
117	0xbd28ba47	-0.041193273
118	0xbe13fd62	-0.14452127
119	0x3d0ca657	0.03433832
120	0xbd4b6611	-0.049657885
121	0xbbab3371	-0.005224638
122	0xbb79923c	-0.0038081547
123	0xbdbbbb6d	-0.09166608
124	0xbd6175ae	-0.05504387
125	0xbc440c6b	-0.011965851
126	0x3d111260	0.035417914
127	0x3d720504	0.059086815
128	0x3db702c2	0.08936073
129	0x3dd889a5	0.105731286
130	0xbda23841	-0.07920886
131	0x3d33a2c6	0.043856405
132	0xbd547a11	-0.051874224
133	0xbdd6c6d3	-0.104871415
134	0xbdaefa8e	-0.08543883
135	0x3beca355	0.007221619
136	0x3d44f7e6	0.048087977
137	0x3d9068ab	0.07051214
138	0x3d4c1fbf	0.049834963
139	0x3da57f63	0.08080938
140	0x3e0d8848	0.13821518
141	0xbd570b03	-0.052500736
142	0xbd989417	-0.07450121
143	0x3dd58840	0.10426378
144	0x3c3a50e0	0.011371821
145	0x3c7aa334	0.0152977
146	0x3d713af1	0.0588941
147	0x3bc3b215	0.0059721568
148	0x3d5ebec4	0.054381147
149	0xbdc1d4ed	-0.094644405
150	0xbd167632	-0.036733814
151	0xbdcb5640	-0.0992856
152	0xbc9daee5	-0.019248435
153	0x3b97deb7	0.004634704
154	0xbc8dd3bd	-0.017312879
155	0x3db6c328	0.08923942
156	0xbd08985a	-0.03334842
157	0x3d9aebe4	0.07564524
158	0xbd3f9902	-0.04677678
159	0xbd0bb122	-0.034104474
160	0x3d1346b0	0.035956085
161	0xbda08a8b	-0.07838925
162	0x3e13091e	0.14358947
163	0x3e50d77b	0.203947
164	0xbce075f9	-0.027400004
165	0xbd6e7d4d	-0.058224965
166	0x3bd8852b	0.0066076717
167	0xbbd90632	-0.006623053
168	0xbd689ff0	-0.056793153
169	0x3d25423a	0.04034636
170	0xbd22acd8	-0.039715618
171	0x3e30fafa	0.1728324
172	0x3e05b964	0.13059002
173	0x3d77dc8e	0.06051307
174	0xbd1bc52a	-0.038029827
175	0xbdfa6484	-0.12226203
176	0x3da0019b	0.07812806
177	0xbdc53248	-0.09628731
178	0xbd83c031	-0.06433142
179	0x3ca56166	0.020188045
180	0xbe0e70c7	-0.13910209
181	0xbea33bdf	-0.31881616
182	0x3c05ca7a	0.00816595
183	0x3dfe262d	0.12409625
184	0xbd757799	-0.05992851
185	0xbd4e3678	-0.050344914
186	0xbc8c184b	-0.017101428
187	0x3ca28187	0.019837154
188	0xbd35d6a8	-0.044394165
189	0x3d3fd059	0.046829555
190	0xbcb7397e	-0.022366282
191	0x3d70a96f	0.058755334
192	0xbd33cc6e	-0.04389613
193	0x3ba29265	0.0049612992
194	0xbdf17c15	-0.11791245
195	0xbd1bc5a6	-0.03803029
196	0xbc149801	-0.009069444
197	0x3db8c36f	0.09021651
198	0x3e3f7dd9	0.18700351
199	0x3dc22cdd	0.09481213
200	0xbd02e86a	-0.03195993
201	0x3d0a6d19	0.03379545
202	0xbd1ca11c	-0.038239583
203	0x3dd3388b	0.10313519
204	0x3d1f6a9a	0.038920023
205	0xbd3068fb	-0.043068867
206	0x3dc365e7	0.09540921
207	0xbe1dfe0a	-0.1542894
208	0xbe19dda7	-0.1502596
209	0xbd5d99cf	-0.05410176
210	0x3e013544	0.12617975
211	0xbaed7b3f	-0.0018118395
212	0xbdc22995	-0.094805874
213	0x3d3cd380	0.04610014
214	0xbd58c101	-0.052918438
215	0x3d9f0a4f	0.07765638
216	0xbd23ea81	-0.040018562
217	0xbe706a4a	-0.23478046
218	0xbda7b4de	-0.081887946
219	0x3e09d350	0.13459516
220	0xbd9de8dd	-0.07710431
221	0xbd320c7e	-0.043468945
222	0xbd0f9930	-0.0350582
223	0xbb17e84c	-0.0023179231
224	0xbd46db6b	-0.048549097
225	0x3dd9a0bf	0.10626363
226	0x3dcb2eeb	0.09921058
227	0x3d952523	0.07282474
228	0xbd2704d2	-0.04077608
229	0xbdc3f983	-0.09569075
230	0xbd63bbed	-0.055599142
231	0x3d87c752	0.06629814
232	0x3db60107	0.08886915
233	0xbc04d281	-0.008106829
234	0x3e78b5a2	0.24288037
235	0x3daaec07	0.083458
236	0x3ca21b60	0.019788444
237	0xbe0f8d00	-0.14018631
238	0x3d6368f1	0.05552
239	0xbc24e69e	-0.010064749
240	0xbd2ebdc3	-0.04266144
241	0x3d559e07	0.05215266
242	0xbdb09448	-0.086220324
243	0x3d1e4b3e	0.038645975
244	0xbdb62a67	-0.08894806
245	0x3c699488	0.014256604
246	0xbd90005b	-0.07031318
247	0x3d82f436	0.06394236
248	0xbde2bf03	-0.11071589
249	0x3b95cc12	0.004571446
250	0xbdace178	-0.08441442
251	0x3da311c6	0.079623744
252	0xbd0f7b4a	-0.035029687
253	0x3d74a44d	0.059727002
254	0x3da9a945	0.08284239
255	0xbd325242	-0.04353548

gnn.convs.1.bias f4 [256]
0	0xbc5cce93	-0.0134769855
1	0xbca9e19b	-0.02073746
2	0xbc8b4d01	-0.017004492
3	0x3c360c5f	0.011111348
4	0xbc9eb6de	-0.019374307
5	0xbc14baf5	-0.009077777
6	0xbc910e9a	-0.017707158
7	0xbc4f3ee5	-0.012649273
8	0xbc8bbacc	-0.017056845
9	0xbc951613	-0.018199002
10	0x3bb98cf8	0.0056625567
11	0xbc995130	-0.018715471
12	0x3c63ce1e	0.013904123
13	0xbc11f8ba	-0.008909399
14	0x3bdcaf1a	0.006734741
15	0xba2cc25a	-0.000659024
16	0x3bf14c5e	0.00736384
17	0xbb61daa7	-0.0034462602
18	0x3b1ea3da	0.002420655
19	0x3b3f400a	0.0029182457
20	0x3c4dcbb6	0.0125607755
21	0x3c22cc7e	0.00993645
22	0xbc2fe31f	-0.010735302
23	0xbc2cd8b1	-0.01054971
24	0x3c7a340e	0.0152712
25	0x3a77b4bf	0.00094492355
26	0xbc75a294	-0.014992375
27	0xbc5268a8	-0.012842335
28	0xbb7e86b5	-0.0038837616
29	0xbb2b918b	-0.002617928
30	0xbc18427c	-0.009293195
31	0xba2be835	-0.0006557734
32	0x3c4f3d95	0.01264896
33	0x3c485b70	0.012228832
34	0xbc05f132	-0.008175181
35	0xbcbef3a7	-0.023309542
36	0x3b1afb43	0.0023648299
37	0xbb82f677	-0.003996666
38	0xbbdf8243	-0.0068209483
39	0x3c34b1a3	0.01102868
40	0x3b8cc408	0.0042958297
41	0x3c8966c9	0.016772645
42	0xbce35002	-0.027748112
43	0xbc3c8953	-0.01150735
44	0xbc2a1a3f	-0.010382234
45	0x3c9922b1	0.0186933
46	0x3ca82fee	0.020530667
47	0xbbdfe239	-0.0068323878
48	0x3bda9fa0	0.006671861
49	0xbc9dcf8e	-0.019264009
50	0xbc161912	-0.009161251
51	0xbcb404ff	-0.021975039
52	0x3be5e042	0.007015259
53	0x3be5fd17	0.007018696
54	0x3c295b17	0.010336659
55	0xbad64b73	-0.001634939
56	0x3c5a9f3a	0.013343627
57	0x3b416e4b	0.0029515203
58	0xba02694d	-0.00049747975
59	0xbc480178	-0.012207381
60	0xbcc4801e	-0.023986872
61	0x3c970c11	0.01843837
62	0xbb5fce60	-0.0034150109
63	0xbb8af31d	-0.004240407
64	0xbbe61b14	-0.007022271
65	0xbb1118a5	-0.0022139933
66	0x3bbbb2ab	0.005728086
67	0xbc62db76	-0.013846269
68	0xbaee86a5	-0.0018198086
69	0xbc014ae6	-0.007891392
70	0xbc85691f	-0.016285477
71	0xbc3d1630	-0.011540934
72	0x3b4a95e2	0.003091209
73	0x3b5cfac0	0.0033718795
74	0xbc103254	-0.008801062
75	0xbc65df97	-0.014030359
76	0x3c932863	0.017963594
77	0x3ce04f89	0.027381675
78	0x3c581af1	0.013190017
79	0xbaa9193f	-0.0012901201
80	0x3c9ef197	0.019402308
81	0xbc15ca2e	-0.009142442
82	0xbc69b888	-0.014265187
83	0xbc860400	-0.01635933
84	0xbc3b2964	-0.0114234425
85	0xbca5d5ee	-0.020243611
86	0xbcabe71a	-0.020984221
87	0x3cada2f2	0.021195862
88	0x3c8e4e38	0.017371282
89	0xbc6c0fde	-0.01440808
90	0x3c9b889c	0.018986039
91	0xbb9f5223	-0.0048620864
92	0x3a8c4394	0.0010701292
93	0x3bc43795	0.005988071
94	0xbc694e8e	-0.01423992
95	0xb9fe2a14	-0.00048478006
96	0x3c8a9468	0.016916469
97	0x3c81488e	0.015781667
98	0x3c89040c	0.016725563
99	0xbbb092ef	-0.0053886096
100	0x3adfe770	0.0017082524
101	0xbcaaf433	-0.020868396
102	0x3b918f87	0.0044421586
103	0xbd019a8f	-0.03164154
104	0x3baf2cd8	0.005345922
105	0x3c0e5f74	0.00868975
106	0xbbc50a1f	-0.0060131694
107	0xbbec5548	-0.0072123148
108	0x3c0fe554	0.008782703
109	0x3a0bf821	0.0005339403
110	0x3af6b96f	0.0018823574
111	0xbc18de95	-0.009330411
112	0x3c95c58b	0.018282672
113	0xbb8791ca	-0.0041372525
114	0xbbd5d263	-0.006525324
115	0x3c20e6a5	0.009820615
116	0x3c02431e	0.007950572
117	0x3cc85169	0.024452882
118	0x3b280822	0.0025639613
119	0x3c9539bf	0.018216012
120	0xbc467c0d	-0.012114537
121	0x3b02e9d0	0.001997579
122	0xbc4e0aa9	-0.012575784
123	0xbc29872b	-0.010347168
124	0x3c0c7224	0.008572135
125	0x3c24a295	0.010048528
126	0x3c2f1ef2	0.01068853
127	0x3add2348	0.0016871477
128	0xbc5bef75	-0.01342379
129	0x3ae11379	0.0017171941
130	0x3cb22f05	0.021750936
131	0xbc5ef946	-0.013609236
132	0xbc585277	-0.013203255
133	0x3c603ccd	0.013686371
134	0xbc6396ba	-0.0138909165
135	0x3c773415	0.015088101
136	0xbcac82d4	-0.021058477
137	0xbca88600	-0.020571709
138	0xbc048a08	-0.00808955
139	0x3cc65d2f	0.024214355
140	0xbba5201a	-0.005039227
141	0x3c15ba40	0.009138644
142	0xbc7ffbd0	-0.015624002
143	0xbc9263e2	-0.017869893
144	0xbc866d18	-0.016409442
145	0xbc366ac0	-0.01113385
146	0x3bd29683	0.006426634
147	0x3bc46385	0.005993309
148	0xbc8799d4	-0.016552843
149	0x3c4cf755	0.01251014
150	0x3c2e0cac	0.010623138
151	0xbb632542	-0.0034659659
152	0xbbda502b	-0.006662389
153	0xbb8a8a97	-0.004227947
154	0xbc600cc6	-0.01367492
155	0x3c46ab91	0.012125866
156	0x3bda0517	0.006653439
157	0x3c4fd07c	0.012683984
158	0xbab72395	-0.0013972396
159	0xbc26b511	-0.0101750055
160	0xbcace8ba	-0.021107066
161	0x3c91f828	0.017818525
162	0xbc96a018	-0.018386886
163	0x3cb4732c	0.022027574
164	0x3b1ec7df	0.002422802
165	0xbb294763	-0.0025829903
166	0x3b763aff	0.0037571786
167	0x3c97bac8	0.018521681
168	0x3c532fdc	0.0128898285
169	0xbce0c046	-0.027435433
170	0x3ad6b478	0.0016380688
171	0x3cd9bc04	0.02657891
172	0x3ba5a278	0.005054768
173	0x3bb673db	0.0055680103
174	0xbc0f1556	-0.008733114
175	0x3b9cf876	0.004790361
176	0xbc01ac84	-0.007914666
177	0xbc5aa787	-0.013345606
178	0x3cb86488	0.022508875
179	0xbc6995ed	-0.0142569365
180	0x3cb05d1f	0.021528779
181	0xbbb385f3	-0.0054786145
182	0x3c80532b	0.015664658
183	0xbc7d205c	-0.01544961
184	0xbc559249	-0.013035365
185	0x3c327948	0.0108931735
186	0xbad3be10	-0.0016154665
187	0x3ca78d7e	0.02045321
188	0xbc560431	-0.013062523
189	0xbca13dc1	-0.019682767
190	0x3c884c6f	0.016638009
191	0xbc5f2c2f	-0.013621374
192	0x3c9b8ff4	0.01898954
193	0xbb9258f9	-0.004466173
194	0xb9a27095	-0.00030982928
195	0x3c9b07a1	0.018924536
196	0xbc433a42	-0.011915745
197	0xbb89d26b	-0.004205992
198	0x3b89d3fa	0.004206178
199	0x3c9bd162	0.01902074
200	0x3c157a4e	0.009123398
201	0x3cca721a	0.024712611
202	0xbc83dfda	-0.016097952
203	0x3afdb986	0.0019357658
204	0xbbc4ce8f	-0.006006069
205	0x3bd77612	0.0065753544
206	0x3bd65ceb	0.0065418384
207	0xbc8487c2	-0.016178016
208	0xbc5711ad	-0.013126773
209	0x3c93bab5	0.018033365
210	0x3ccd8fdf	0.025093017
211	0x3cd69679	0.026194798
212	0x3c814566	0.015780162
213	0x3c3e92ad	0.01163165
214	0xbb8a0986	-0.004212561
215	0x3cdb6fd3	0.02678672
216	0xba0b0ffe	-0.0005304812
217	0x3c4898f6	0.0122435
218	0x3c4e3ff6	0.012588492
219	0x3cb2bf6a	0.021819789
220	0xbc049087	-0.008091099
221	0xbc1f525e	-0.009724228
222	0x3b77ac06	0.0037791743
223	0x3c12f653	0.008969861
224	0x3c57fb30	0.013182446
225	0xbc5d94c0	-0.013524234
226	0x3b85ae18	0.0040795915
227	0x3ca68c9a	0.020330716
228	0x3b51a1ef	0.003198739
229	0xbcae45f2	-0.021273587
230	0x3aec0d0e	0.0018009262
231	0xbc3a5fb4	-0.011375356
232	0xbc90a3a9	-0.017656164
233	0x3c34b0af	0.011028453
234	0xbb0372d4	-0.0020057457
235	0x3c68b7e6	0.014204001
236	0xbb6b7b40	-0.0035931617
237	0x3b33a781	0.0027413073
238	0x3c431e71	0.011909113
239	0x3c413cc6	0.011794275
240	0xbc14c3f3	-0.009079921
241	0xbc28cc75	-0.010302653
242	0xbacd30ae	-0.0015654766
243	0xbc684e72	-0.014178859
244	0xbc88ce55	-0.01669995
245	0xbc5d372d	-0.013501924
246	0x3c40153a	0.011723811
247	0xbc163e1c	-0.0091700815
248	0x3c3147c2	0.010820331
249	0x3c87e4f5	0.016588667
250	0x3bbef3ea	0.0058274167
251	0xbbe8c0b0	-0.0071030483
252	0x3b8cc98b	0.0042964867
253	0xbc169281	-0.009190203
254	0xbada8126	-0.0016670569
255	0x3c84d43e	0.016214486

gnn.convs.1.lin.weight f4 [256, 512]
0	0x3d59d64d	0.05318289
1	0x3cb34682	0.021884207
2	0x3d115edb	0.03549085
3	0x3d0fb2b5	0.035082538
4	0x3d369c1b	0.044582468
5	0x3d5f1f48	0.05447319
6	0xbd95013a	-0.072756246
7	0x3d64194c	0.055688187
8	0x3cf41af5	0.02979801
9	0x3bc69058	0.0060596876
10	0xbd8ebb67	-0.06969338
11	0xbd8dc405	-0.069221534
12	0xbd20eaa4	-0.03928627
13	0xbd903b72	-0.07042588
14	0xbd9d392b	-0.076769195
15	0x3dafda66	0.08586578
16	0xbd1393b8	-0.036029547
17	0xbd7617f7	-0.06008145
18	0x3d870fc9	0.06594808
19	0x3cd1858f	0.025576381
20	0x3c8c1078	0.017097697
21	0x3da735c4	0.08164552
22	0x3d89fbda	0.0673749
23	0x3ccfc85e	0.025364097
24	0xbdb09889	-0.08622844
25	0x3c22a95c	0.009928074
26	0xbd4a33c1	-0.049365763
27	0xb9f03dd8	-0.00045822444
28	0x3db07633	0.08616295
29	0xbdae5cf3	-0.085138224
30	0x3d9f0ac2	0.07765724
31	0xbc0de6f3	-0.00866102
32	0xbd2523a3	-0.04031719
33	0xbd1b292e	-0.03788107
34	0x3c1ec779	0.009691113
35	0x3d1bee87	0.038069274
36	0x3ce83740	0.028346658
37	0xbc8f0e74	-0.017462946
38	0x3c94001b	0.018066457
39	0x3c1d6e58	0.0096088275
40	0x3d2d3e90	0.042295992
41	0xbda5f54f	-0.081034295
42	0xbc41fed8	-0.011840545
43	0xbb96a1b7	-0.0045969146
44	0x3daa96c6	0.08329539
45	0xbd92b0f2	-0.07162656
46	0x3d9479f6	0.07249825
47	0x3ca11792	0.01966456
48	0x3d96548b	0.07340344
49	0xbd34d93e	-0.04415249
50	0xbd9822ff	-0.0742855
51	0xba149250	-0.0005667554
52	0x3da89d49	0.08233125
53	0xbd6fa70d	-0.05850892
54	0xbdaaa1d5	-0.08331648
55	0x3d9cfdd0	0.076655984
56	0x3d5fdcdc	0.054653987
57	0x3d59a8c8	0.053139478
58	0x3c051c81	0.008124472
59	0x3b20c639	0.0024532212
60	0xbd5b706b	-0.053574007
61	0x3c8f7d2f	0.017515747
62	0x3d9b9bce	0.07598077
63	0xbd900763	-0.07032659
64	0xbd029a39	-0.03188536
65	0x3d9d6a7c	0.07686326
66	0x3d8f6db7	0.07003348
67	0xbd12a800	-0.03580475
68	0xb9cd4912	-0.0003915509
69	0x3c867935	0.016415218
70	0x3daf7aa9	0.085683174
71	0xbd8da537	-0.06916278
72	0xbd7197fe	-0.05898284
73	0xbd12c666	-0.03583374
74	0x3d61bb91	0.055110518
75	0xbc74d18a	-0.014942536
76	0x3da0c38f	0.078498
77	0xbd0cb35a	-0.03435073
78	0xbd8769ac	-0.06611952
79	0x39f750d2	0.00047171727
80	0x3ca6416f	0.020294873
81	0xbd135409	-0.035968814
82	0x3d2d860e	0.042364173
83	0x3d0eda31	0.034876052
84	0x3d92ebfe	0.07173918
85	0x3d2bdf39	0.04196093
86	0xbd2dafe8	-0.042404085
87	0x3d476a05	0.048685092
88	0xbc9d8c8d	-0.019232059
89	0xbdb13be8	-0.08654004
90	0x3cc8c723	0.024509018
91	0xbcfe75b6	-0.031061988
92	0xbd95d1c0	-0.07315397
93	0x3cb5dc52	0.022199783
94	0x3d688f24	0.056777135
95	0xbd085b32	-0.033290096
96	0xbc7743a0	-0.015091807
97	0x3dae1c34	0.08501473
98	0x3d8616f9	0.065473504
99	0x3d3b9101	0.045792583
100	0xbdaf4257	-0.08557575
101	0xbcb56c30	-0.022146314
102	0x3daf0750	0.085463166
103	0x3d2dd8ad	0.042442966
104	0x3d28480f	0.041084345
105	0xbda7301c	-0.08163473
106	0x3d2693b8	0.04066822
107	0x3c663f4c	0.014053177
108	0xbba33b33	-0.0049814223
109	0xbc4ed4d0	-0.012623981
110	0x3d8063e0	0.0626905
111	0xbce27917	-0.02764563
112	0x3d068f61	0.03285158
113	0x3d2547df	0.040351745
114	0xbd00f76b	-0.031485956
115	0xbda717ae	-0.081588134
116	0xbd0ff9ca	-0.035150327
117	0x3da271e0	0.07931876
118	0x3cb3c3d4	0.021943964
119	0xbd4e390e	-0.05034738
120	0xbd7ba831	-0.061439697
121	0xbd30ebdd	-0.043193687
122	0x3dbdccf0	0.09267604
123	0x3d7d1be9	0.061794195
124	0xbd0a0a15	-0.03370102
125	0xbd064595	-0.032781202
126	0xbd826c0c	-0.063682646
127	0xbb54774c	-0.003241974
128	0x3d2b8704	0.041876808
129	0xbd4fc9e4	-0.050729647
130	0xbd8a7d57	-0.06762188
131	0x3d99a8f7	0.075029306
132	0xbd44bd57	-0.04803213
133	0x3d8214fc	0.06351659
134	0xbd8ddcb4	-0.069268614
135	0xbc21d06c	-0.009876352
136	0x3d8a1781	0.06742764
137	0xbd791929	-0.06081501
138	0xbd2731dd	-0.040819038
139	0x3db33440	0.087502
140	0xbc3c4f49	-0.011493512
141	0x3d17a707	0.037024524
142	0xbdaea5c0	-0.08527708
143	0xbcadb471	-0.021204205
144	0x3cce0211	0.02514747
145	0x3ced3e5d	0.028960401
146	0x3c918fd5	0.01776878
147	0x3c6c9fc0	0.014442384
148	0x3d6bf29e	0.057604425
149	0x3d82c7ce	0.06385766
150	0xbd352905	-0.044228572
151	0x3d041ddd	0.032255042
152	0xbdae89c0	-0.085223675
153	0xbba39355	-0.0049919286
154	0xbdb02e52	-0.08602585
155	0x3dbe5f6c	0.09295544
156	0x3d1d4167	0.03839245
157	0x3d2ab789	0.04167894
158	0xbcc63a54	-0.024197735
159	0x3d83e9f6	0.06441109
160	0xbd081469	-0.03322259
161	0xbd285bd1	-0.041103188
162	0xbae2f246	-0.0017314635
163	0x3da3c0c2	0.0799575
164	0x3dae8fa4	0.08523491
165	0x3ce7223e	0.02821457
166	0xbd9216ba	-0.07133241
167	0x3d11ac05	0.03556444
168	0xbd0c3f18	-0.03423986
169	0xbd67cb15	-0.05659016
170	0xbd4bc9e5	-0.04975309
171	0x3c4c72c3	0.012478533
172	0xbd6466f8	-0.05576226
173	0xbcaa01d9	-0.020752834
174	0x3dbb03d3	0.09131589
175	0x3cb1d484	0.02170778
176	0xbd829623	-0.063762926
177	0x3c883e6b	0.016631326
178	0x3daa5d8f	0.08318626
179	0x3d5f5b05	0.054530162
180	0xbd10e732	-0.035376735
181	0x3ca90773	0.020633435
182	0x3a6227b3	0.00086271315
183	0x3ce18298	0.027528092
184	0x3d1a5650	0.03767997
185	0x3d498c4a	0.049206056
186	0x38ec8b66	0.00011279322
187	0xbd101679	-0.03517768
188	0xbc4f525f	-0.012653916
189	0xbcecaa31	-0.028889747
190	0x3d879548	0.0662027
191	0xbd8163dd	-0.063178755
192	0xbd47f255	-0.04881509
193	0xbc8be4d6	-0.01707689
194	0x3d6803a5	0.0566441
195	0xbd01a326	-0.03164973
196	0xbd70fd2a	-0.058835186
197	0x3daa370e	0.08311282
198	0x3d5d94b6	0.0540969
199	0x3d8e3c51	0.06945098
200	0xbae4abf5	-0.0017446267
201	0x3d888190	0.06665337
202	0x3d321cc8	0.04348448
203	0xbd12d75d	-0.035849918
204	0xbb9f88fa	-0.004868624
205	0xbcc09010	-0.023506194
206	0x3d36f729	0.044669304
207	0xbbb2a1f1	-0.005451434
208	0x3d06fc08	0.0329552
209	0x3cf7a983	0.030232197
210	0x3c05ae00	0.008159161
211	0x3dbbbd2b	0.0916694
212	0x3d5e11fe	0.054216377
213	0xbd2e08f7	-0.04248902
214	0x3d5b397c	0.05352162
215	0xbd9657c7	-0.07340961
216	0xbd812849	-0.06306512
217	0x3c746bcc	0.014918279
218	0xbd8c790d	-0.06859026
219	0xbd0aea02	-0.033914573
220	0x3cb743ef	0.02237126
221	0x3d4d8b34	0.050181583
222	0x3d73aad7	0.059489097
223	0xbd4bd508	-0.04976371
224	0xbd874c1c	-0.066063136
225	0x3d28cc43	0.041210424
226	0x3dc593b1	0.096473105
227	0xbd8965d0	-0.06708872
228	0xbd54bb85	-0.051936645
229	0x3d7422b5	0.05960341
230	0x3ce74989	0.028233306
231	0x3d514503	0.051091205
232	0xbd36fd29	-0.044675026
233	0xbccc2dd2	-0.024924193
234	0xbd5ba237	-0.053621497
235	0xbd70c6e5	-0.05878343
236	0x3cb7183c	0.022350423
237	0xbcd4f5c7	-0.025996102
238	0xbdb78a4c	-0.08961925
239	0xbbc0ddc4	-0.0058858115
240	0xbcacd6c5	-0.021098504
241	0x3d29f722	0.04149545
242	0x3db607c8	0.08888203
243	0x3cbd170a	0.023082275
244	0xbd8dcd4a	-0.069239214
245	0x3d0709de	0.032968394
246	0x3dc7b7fc	0.09751889
247	0xbd04809a	-0.032349207
248	0xbd8ed3bc	-0.06973979
249	0xbd86e202	-0.06586076
250	0x3ac73c59	0.001520048
251	0xbc897bb9	-0.016782628
252	0xbd01e6ec	-0.031714365
253	0x3c26327b	0.010143871
254	0xbdb2e24d	-0.0873457
255	0xbd34222d	-0.043977905

attention_pool.gate_nn.weight f4 [1, 256]
0	0xbd29feab	-0.041502636
1	0x3b2ea3df	0.0026647968
2	0xbe8d135f	-0.2755384
3	0xbd39ae2f	-0.04533213
4	0xbd55ded6	-0.052214466
5	0xbc29257e	-0.01032388
6	0xbc9b31b1	-0.018944593
7	0x3d4baa36	0.049722873
8	0xbceee8e3	-0.029163783
9	0xbd033554	-0.03203328
10	0xbd1f0544	-0.03882338
11	0xbd40cb48	-0.047068864
12	0xbd0ad228	-0.033891827
13	0x3d2692f4	0.04066749
14	0xbd7a55f5	-0.06111713
15	0x3db017fe	0.08598326
16	0x3d082c0c	0.03324513
17	0xbdca9440	-0.09891558
18	0x3cf495ab	0.029856523
19	0x3c3c4736	0.011491587
20	0xbe212ba6	-0.15739307
21	0xbd8f8adf	-0.070089094
22	0xbcc0eab9	-0.023549424
23	0xbe606a73	-0.21915607
24	0xbcea63f7	-0.02861212
25	0x3d69ea62	0.05710829
26	0xbc0b2a26	-0.008493936
27	0x3c1e6a61	0.009668917
28	0x3dc3dc23	0.09563472
29	0x3ca238a0	0.019802392
30	0xbccded23	-0.02513749
31	0x3dcc3afc	0.09972188
32	0x3d3f6e43	0.046736013
33	0xbd217e2e	-0.039426975
34	0xbc636e7c	-0.013881322
35	0xbd5f2e1a	-0.054487325
36	0x3ce44dcf	0.027869133
37	0xbd29c300	-0.041445732
38	0xbd52a331	-0.051425163
39	0x3cad0ad2	0.021123324
40	0xbcde5b0e	-0.027143028
41	0xbd91a5ff	-0.07111739
42	0xbdd0053c	-0.101572484
43	0x3cca1dc3	0.024672395
44	0x3d587583	0.052846443
45	0x3d002f9d	0.031295408
46	0x3dbb45c0	0.09144163
47	0xbda5a6ad	-0.080884315
48	0xbcc270b4	-0.023735382
49	0xbd788b6d	-0.06067984
50	0x3c7070b8	0.014675312
51	0xbd88fb4e	-0.066885576
52	0x3d2b9cc5	0.041897554
53	0x3d29d89d	0.041466344
54	0xbc70fc30	-0.014708564
55	0x3dc73c0c	0.0972825
56	0x3b4ee77d	0.0031571083
57	0x3e5af9b6	0.2138432
58	0xbcc82084	-0.024429567
59	0xbc9c184e	-0.019054558
60	0x3d5c9bb6	0.053859435
61	0x3d8646a5	0.06556443
62	0xbdb2e113	-0.08734336
63	0x3ccb6e15	0.024832765
64	0xbd0e8885	-0.034798164
65	0xbb25bf6a	-0.0025291094
66	0x3c184b42	0.009295287
67	0x3d604117	0.054749575
68	0x3db6bee8	0.08923131
69	0x3cb6bdaa	0.022307236
70	0x3d6be9c0	0.05759597
71	0x3c8af1e7	0.016961051
72	0x3d889bf3	0.0667037
73	0xbd7b76c6	-0.061392568
74	0xbd60dc6d	-0.054897714
75	0x3c6955c2	0.014241638
76	0x3c79cc04	0.015246395
77	0xb9fe24d4	-0.00048474094
78	0x3d41ffcb	0.047363084
79	0x3d819212	0.06326689
80	0x3d68aeda	0.056807376
81	0xbcc05ca2	-0.02348167
82	0x3cd0dad8	0.025494978
83	0xbbaa7d29	-0.0052029085
84	0x3c2577f4	0.0100994
85	0x3d441d84	0.04787971
86	0xbd278d47	-0.040906217
87	0xbc0e4685	-0.008683805
88	0xbc656f63	-0.014003607
89	0xbd44d41a	-0.04805384
90	0xbbc90976	-0.006135161
91	0x3ccf0c60	0.025274456
92	0x3c75a337	0.014992527
93	0x3db46634	0.08808556
94	0x3c773944	0.015089337
95	0xbda117b2	-0.07865848
96	0x3db18281	0.0866747
97	0x3c90a68a	0.017657537
98	0x3d8497cc	0.064742655
99	0x3a4abe60	0.00077340566
100	0xbd087660	-0.033316016
101	0xbe1f420f	-0.15552543
102	0x3d584032	0.052795596
103	0xbd858506	-0.06519513
104	0xbd2ae990	-0.04172665
105	0x3a82a4c6	0.0009967319
106	0x3c3efd04	0.011657003
107	0xbd830c4e	-0.06398831
108	0x3da71c29	0.08159668
109	0xbd7a615a	-0.061127998
110	0x3d0ddc4d	0.034633923
111	0xbd31f9c2	-0.04345108
112	0x3e0bd4fc	0.13655466
113	0x3c283da9	0.010268607
114	0xbdc48857	-0.09596317
115	0xbdeb3ec9	-0.11486585
116	0xbb486fea	-0.0030584284
117	0x3d023453	0.03178818
118	0x3bbfcd54	0.0058533344
119	0x3d963796	0.07334821
120	0x3dbcd489	0.09220225
121	0x3da0ee47	0.07857948
122	0xbd49f795	-0.04930838
123	0xbcb38be6	-0.021917295
124	0xbd8a8798	-0.06764144
125	0x3d57da52	0.05269844
126	0x3d65cb28	0.056101948
127	0xbd41424e	-0.047182374
128	0xbd3fffe0	-0.04687488
129	0x3d844778	0.06458944
130	0x3ca63b33	0.0202919
131	0x3c12a395	0.008950134
132	0xbb328211	-0.002723817
133	0x3dbe1e0b	0.09283074
134	0xbc9b5748	-0.018962517
135	0x3de64dd7	0.112453155
136	0x3d314649	0.04327992
137	0xbce84b72	-0.028356288
138	0x3ce75cde	0.028242525
139	0x3d927481	0.071511276
140	0xbe0f4fd1	-0.13995291
141	0xbd21c797	-0.039496984
142	0xbd599b70	-0.053126752
143	0x3d6dceb1	0.058058444
144	0xbdaa06ac	-0.08302054
145	0x3e06e0c5	0.1317168
146	0xbcbbb822	-0.02291495
147	0xbc8b01e5	-0.016968677
148	0x3d79b22d	0.060960937
149	0xbc589044	-0.013217989
150	0xbd1da14a	-0.038483895
151	0xbc950f96	-0.018195909
152	0xbde76713	-0.11298957
153	0x3d2a3c45	0.041561384
154	0x3dc5fb98	0.09667128
155	0xbb36a9af	-0.0027872135
156	0x3b50328e	0.0031768414
157	0x3bedab8f	0.0072531174
158	0x3df27f8f	0.11840736
159	0xbda6ed44	-0.081507236
160	0xbd68f489	-0.056873832
161	0x3c847e97	0.016173644
162	0x3d102c89	0.035198722
163	0x3d7eb448	0.06218365
164	0xbd549a65	-0.051905055
165	0xbd2cd148	-0.042191774
166	0xbd787d98	-0.06066665
167	0xbd2b0d83	-0.041760933
168	0x3d931efe	0.07183646
169	0xbd9a7c9f	-0.07543301
170	0xbd7cc570	-0.06171173
171	0x3c340501	0.010987521
172	0x3c712385	0.014717941
173	0xbc734909	-0.014848956
174	0xbd2552f0	-0.0403623
175	0x3d784017	0.060607996
176	0xbd496bff	-0.04917526
177	0x3c0110a0	0.007877499
178	0x3d479c0b	0.0487328
179	0x3d457c0b	0.048214
180	0x3d89a545	0.06720976
181	0xbd84bbff	-0.0648117
182	0xbd2c49c9	-0.042062555
183	0xbd0ff4bf	-0.035145517
184	0xbd535f36	-0.051604472
185	0x3b8d0a98	0.0043042414
186	0x3cf1ef9d	0.029533202
187	0x3e117517	0.14204822
188	0x3c7a463d	0.015275535
189	0xbd09f8db	-0.033684593
190	0xbcb66cf7	-0.022268755
191	0x3c180843	0.0092793135
192	0xbcd3dcee	-0.025862183
193	0x3cab9a4e	0.020947602
194	0x3bdd9410	0.006762035
195	0xbc082d32	-0.008311557
196	0xbbdc2a56	-0.006718914
197	0x3d82e1ee	0.06390749
198	0xbd8dab95	-0.06917492
199	0xbb4d1739	-0.003129436
200	0xbd65a59e	-0.056066148
201	0x3cc15ffd	0.023605341
202	0xbc0982a3	-0.008392963
203	0x3cb4c0ad	0.022064531
204	0x3d7d42ff	0.06183147
205	0xbd26f109	-0.040757213
206	0x3cb00fd8	0.02149193
207	0xbd3071f2	-0.043077417
208	0xbd1aad90	-0.03776318
209	0xbcc62bfc	-0.024190895
210	0x3e500c98	0.20317304
211	0x3ca47ebe	0.020079967
212	0xbd7f6db9	-0.0623605
213	0x3d8247ac	0.063613266
214	0xbd4b6a18	-0.049661726
215	0xbabcbe3f	-0.001439996
216	0xbce15cd2	-0.02751008
217	0xbbc1e56b	-0.0059172413
218	0xbc31fc8c	-0.0108634345
219	0xbc802678	-0.015643343
220	0x3d123593	0.035695624
221	0x3d8e33ef	0.06943499
222	0x3c589e45	0.013221328
223	0x3b034efd	0.0020036094
224	0x3dc129c6	0.09431796
225	0xbd11d689	-0.035604987
226	0x3ccdcc98	0.025121972
227	0x3d8ce1eb	0.06879028
228	0xbdd47806	-0.10374455
229	0x3d8be45c	0.068306655
230	0x3d54a37c	0.051913723
231	0x3d1cdb98	0.03829536
232	0xbd8e6f7b	-0.06954857
233	0xbdb0ed93	-0.08639064
234	0x3d2ed6a9	0.042685185
235	0x3d128104	0.03576757
236	0x3dabb96a	0.08384974
237	0x3d6d096b	0.05787031
238	0xbc875392	-0.016519342
239	0xbc051113	-0.008121747
240	0xbd95a79f	-0.07307362
241	0xbdc94fd8	-0.09829682
242	0x3e1be9cd	0.15225907
243	0xbbbab7f7	-0.0056982
244	0x3d01fba1	0.031734113
245	0xbb02309a	-0.0019865395
246	0x3b999475	0.004686887
247	0x3dd96391	0.10614694
248	0xbc085a30	-0.008322284
249	0x3cd1273f	0.02553141
250	0xbcd7155b	-0.0262553
251	0xbe2245c9	-0.15846933
252	0x3cb342bf	0.021882413
253	0xbd3431fe	-0.04399299
254	0x3d8f4f00	0.0699749
255	0x3e441caa	0.1915156

regressor.weight f4 [2, 256]
0	0x3b441cce	0.0029924395
1	0xba15eb49	-0.0005718959
2	0x3a0cbf13	0.00053690484
3	0x3d02550e	0.031819396
4	0xbc6ab32a	-0.014324943
5	0xbc9a3539	-0.018824207
6	0xbd03eb30	-0.032206714
7	0xbd01f45c	-0.03172718
8	0xbc98756d	-0.01861068
9	0xbceada19	-0.02866845
10	0xbcd525a7	-0.02601893
11	0xbb0c895e	-0.0021444182
12	0x3d4cdbcd	0.050014306
13	0xbd24f80c	-0.04027562
14	0x3d592aff	0.05301952
15	0xbbd7c2c9	-0.0065844995
16	0xbb255ed1	-0.0025233517
17	0xbbfc87cc	-0.007706618
18	0x3d0abe85	0.0338731
19	0x3c79aa96	0.015238425
20	0x3cfa75cd	0.03057375
21	0x3d35cec6	0.044386648
22	0xbcab5a3d	-0.020917052
23	0x3aecf249	0.0018077578
24	0x3d231e7f	0.039824005
25	0x3d2b2bf7	0.041789975
26	0xbd39183d	-0.04518913
27	0xbca715a7	-0.020396067
28	0x3c225be0	0.0099096
29	0x3d21521f	0.039384957
30	0x3b041043	0.0020151294
31	0xbc1f82fd	-0.00973582
32	0x3c4fa08b	0.012672554
33	0x3c8ffc49	0.017576354
34	0xbd4ee502	-0.050511368
35	0xbd5b2004	-0.05349733
36	0x3ccfb3d3	0.025354302
37	0xbcba1bac	-0.022718273
38	0x3b72f7e3	0.0037074022
39	0x3cf2e1a5	0.029648611
40	0x3d15342a	0.0364267
41	0x3cd0fb6b	0.02551051
42	0xbb15cdfb	-0.002285837
43	0xbb3b3b89	-0.0028569421
44	0xbcd307c7	-0.025760544
45	0x3d0d1660	0.034445167
46	0x3cb9c259	0.02267568
47	0xbd2ebc12	-0.042659827
48	0xbba7fcee	-0.005126587
49	0xbc002ade	-0.00782272
50	0xbc298e59	-0.01034888
51	0xbced751e	-0.02898651
52	0x3ad4f964	0.0016248641
53	0x3cf7e3f9	0.030260073
54	0x3bff0695	0.007782767
55	0xbccbdebd	-0.024886483
56	0x3d2f0b7d	0.042735565
57	0xbb13030d	-0.0022432238
58	0xbb0f0fc0	-0.0021829456
59	0x3b5ae6d9	0.0033401756
60	0xbcc7d807	-0.024395002
61	0x3a4e6ba3	0.00078743155
62	0x3c079e06	0.008277422
63	0xbcdbd547	-0.026835097
64	0xbd365b48	-0.044520646
65	0x3cb6e83b	0.022327533
66	0x3d02d2bd	0.031939257
67	0xbc895621	-0.016764702
68	0xbad5df55	-0.0016317168
69	0xbc4ac9c2	-0.012377204
70	0xbbed97f6	-0.007250781
71	0xbb239484	-0.0024960348
72	0x3d24364b	0.04009084
73	0xbc9b62c1	-0.018967988
74	0x3b1e24a8	0.0024130736
75	0xbc5ceb67	-0.013483859
76	0x3cacd282	0.021096472
77	0x3ce7e75c	0.028308563
78	0x3cbb402e	0.022857752
79	0x3ab2c21f	0.0013638175
80	0x3d438fb5	0.04774447
81	0x3b7fb6e0	0.0039018914
82	0xbd1d39b2	-0.0383851
83	0xbca8c0f6	-0.020599823
84	0xbc32ab09	-0.010905036
85	0xbcc8d86c	-0.02451726
86	0xbcdddf2e	-0.02708396
87	0x3d32bd6e	0.043637685
88	0x3cf8371c	0.030299716
89	0xbd067880	-0.03282976
90	0x3c7197d6	0.014745673
91	0xbd1f7122	-0.03892625
92	0x3ca32bf9	0.019918429
93	0x3cf6c28e	0.030122068
94	0xbc8d06d2	-0.017215166
95	0xba7e8281	-0.00097087777
96	0x3d0623e3	0.032749068
97	0x3cd9268d	0.02650764
98	0x3c7b3add	0.015333858
99	0xbb8e6112	-0.004345068
100	0x3c6335e9	0.013867834
101	0xb8764dd6	-5.872346e-05
102	0x3c86ef54	0.016471542
103	0xbc4f69bf	-0.012659489
104	0x3cb32aa7	0.021870924
105	0xbc5311e9	-0.012882688
106	0xbbba9d03	-0.005694987
107	0xba1141ee	-0.00055411353
108	0x3a28394e	0.00064172305
109	0x3ca4df4d	0.02012601
110	0xbb87632c	-0.0041316953
111	0xbcec1325	-0.028817723
112	0x3b55643e	0.003256097
113	0xbb8a4054	-0.0042190943
114	0xbcab473c	-0.02090799
115	0x3c6ef023	0.01458362
116	0x3c383c34	0.011244822
117	0x3ce9d8ed	0.028545821
118	0x3a19b32c	0.00058631855
119	0x3cfdb5bb	0.030970445
120	0xbcbcbcc6	-0.023039233
121	0xbc6471de	-0.013943164
122	0x3bd7bf9b	0.0065841204
123	0xbc91725d	-0.017754728
124	0x3d2e0193	0.04248197
125	0x397ec16e	0.00024295386
126	0xbaf2a5b7	-0.0018512522
127	0xbbbc3d77	-0.005744632
128	0x3b9e5add	0.004832609
129	0x3a06b0bf	0.00051380316
130	0x3b2742c4	0.0025521973
131	0xbd2d55e8	-0.042318255
132	0xbd15becd	-0.036558915
133	0xbb8e9258	-0.0043509416
134	0xb785cdbe	-1.5950642e-05
135	0x3b0e1852	0.0021681977
136	0xbc75e2f1	-0.01500772
137	0xbd08d3bb	-0.033405047
138	0x3c052934	0.008127499
139	0x3cafda25	0.021466324
140	0x3a77af9b	0.00094484695
141	0x3cf65640	0.030070424
142	0xbcf14160	-0.029450119
143	0xbcd28497	-0.02569799
144	0xbcebb3ff	-0.028772352
145	0xbd14138d	-0.036151458
146	0x3b9a52d4	0.004709581
147	0x3c1e84bc	0.009675201
148	0xbd2c448d	-0.042057563
149	0x3c9ecb03	0.019383913
150	0x3a46c26c	0.00075820717
151	0x3cb2a143	0.021805411
152	0xbc001b3f	-0.007818996
153	0x3cd602f1	0.02612445
154	0xbd102c63	-0.03519858
155	0xbc8312a2	-0.016000096
156	0x3bdd77d5	0.00675867
157	0x3cd9cbc6	0.026586425
158	0xbc9ce0e1	-0.0191502
159	0xb9ce3aa8	-0.00039335084
160	0xbc119247	-0.008884973
161	0x3c80b86c	0.01571294
162	0xbd12d0ee	-0.035843782
163	0x3beb1414	0.0071740244
164	0xbbe9066c	-0.0071113613
165	0xbaf571fc	-0.0018725987
166	0x3c74f51a	0.014951015
167	0x3c8755ba	0.01652037
168	0xba977c01	-0.0011557342
169	0xbb6f04cc	-0.0036471365
170	0x3c63db08	0.013907202
171	0x3d5a309e	0.05326902
172	0xbd06ee97	-0.03294238
173	0x3c946368	0.018113807
174	0xbd3aad3c	-0.045575365
175	0x3d197f9e	0.03747522
176	0xbd0dc453	-0.034611057
177	0x3c6af70c	0.014341127
178	0x3c01f16e	0.0079310965
179	0xbc966e39	-0.018363105
180	0x3d21d373	0.039508294
181	0x3ce3b5b0	0.027796596
182	0x3d04568d	0.032309104
183	0xbd15c74d	-0.03656702
184	0xbca30f01	-0.019904615
185	0xba72d870	-0.0009263819
186	0x3d0e6a7f	0.03476953
187	0xb868dc4b	-5.5518274e-05
188	0xbd09633d	-0.033541907
189	0xbce7a9b2	-0.02827916
190	0x3d2e1802	0.042503364
191	0xbc788549	-0.015168496
192	0x3d367e59	0.04455409
193	0xbd3fb64f	-0.046804722
194	0x3c6cc655	0.014451583
195	0x3c3e7adb	0.011625971
196	0xbca2dd0d	-0.019880796
197	0xbcb0df34	-0.021590807
198	0x3cec3a79	0.028836476
199	0x3cb19d45	0.021681437
200	0x3d06de7b	0.032927018
201	0x3d1656ff	0.03670406
202	0xbcdaee2f	-0.026724903
203	0xbc010ac4	-0.007876102
204	0x3bad7939	0.005293992
205	0x3b439506	0.0029843464
206	0x3c9d0921	0.019169392
207	0xbc91775e	-0.017757114
208	0xbd19c4fe	-0.037541382
209	0x3d2dabc5	0.04240014
210	0x39802242	0.00024439587
211	0x3d2bfa58	0.041986793
212	0x3c99763c	0.018733136
213	0x3c8e59da	0.017376829
214	0x3b5caa81	0.0033670964
215	0x3d13d4a7	0.036091473
216	0x3c060af6	0.008181324
217	0x3d37b161	0.044846896
218	0x3cb06fa3	0.021537608
219	0x3d41885d	0.047249187
220	0xbd224d80	-0.03962469
221	0xbd00b2e4	-0.031420603
222	0xbb378a98	-0.0028006192
223	0x3cb3a87c	0.021930926
224	0x3d24ce42	0.040235765
225	0xbbc1c06c	-0.005912831
226	0x3c0d0b5a	0.008608663
227	0x3ccf8d54	0.025335945
228	0x3cd08d10	0.025457889
229	0xbccb94a9	-0.02485116
230	0xbbdad798	-0.006678533
231	0xbcaf6439	-0.021410095
232	0xbd4851e2	-0.048906215
233	0x3c9926a1	0.018695178
234	0xbd12a89a	-0.035805322
235	0xbb6a1056	-0.0035715303
236	0xbbac7759	-0.005263251
237	0x3cc83394	0.024438657
238	0x3cb3c198	0.021942899
239	0x3c490c9a	0.012271071
240	0x3cd28aea	0.025701005
241	0xbb81515b	-0.003946466
242	0xbbb4901a	-0.0055103423
243	0xbca67088	-0.020317331
244	0xbc8ca066	-0.017166328
245	0xbd45fc3c	-0.048336253
246	0x3ab6f621	0.001395885
247	0xbc6f58bd	-0.014608559
248	0x3bfa86ec	0.0076454785
249	0x3ba24280	0.004951775
250	0xbc70b9a9	-0.014692702
251	0xbcbe72c8	-0.023248091
252	0x3d02c1b6	0.03192302
253	0xbd418639	-0.047247145
254	0xbc877aa5	-0.016537974
255	0x3b114bd1	0.0022170434

regressor.bias f4 [2]
0	0x3ca970c3	0.020683652
1	0x3d644407	0.05572894
